{"format": "graph-model", "generatedBy": "2.19.0", "convertedBy": "TensorFlow.js Converter v4.22.0", "signature": {"outputs": {"Identity:0": {"name": "Identity:0"}}}, "modelTopology": {"node": [{"name": "ConstantFolding/model_99/tf.math.divide_5/truediv_recip", "op": "Const", "attr": {"value": {"tensor": {"dtype": "DT_FLOAT", "tensorShape": {}}}, "dtype": {"type": "DT_FLOAT"}}}, {"name": "model_99/tf.strided_slice_39/ones_like/tensor", "op": "Const", "attr": {"value": {"tensor": {"dtype": "DT_INT64", "tensorShape": {"dim": [{"size": "3"}]}}}, "dtype": {"type": "DT_INT64"}}}, {"name": "model_99/tf.strided_slice_39/StridedSlice/end", "op": "Const", "attr": {"value": {"tensor": {"dtype": "DT_INT64", "tensorShape": {"dim": [{"size": "3"}]}}}, "dtype": {"type": "DT_INT64"}}}, {"name": "model_99/tf.strided_slice_39/ones_like", "op": "Const", "attr": {"value": {"tensor": {"dtype": "DT_INT64", "tensorShape": {"dim": [{"size": "3"}]}}}, "dtype": {"type": "DT_INT64"}}}, {"name": "model_99/tf.math.add_173/Add/y", "op": "Const", "attr": {"value": {"tensor": {"dtype": "DT_FLOAT", "tensorShape": {"dim": [{"size": "1"}, {"size": "2"}, {"size": "8400"}]}}}, "dtype": {"type": "DT_FLOAT"}}}, {"name": "model_99/50443", "op": "Const", "attr": {"value": {"tensor": {"dtype": "DT_FLOAT", "tensorShape": {"dim": [{"size": "1"}, {"size": "2"}, {"size": "8400"}]}}}, "dtype": {"type": "DT_FLOAT"}}}, {"name": "model_99/tf.strided_slice_36/StridedSlice/begin", "op": "Const", "attr": {"value": {"tensor": {"dtype": "DT_INT32", "tensorShape": {"dim": [{"size": "3"}]}}}, "dtype": {"type": "DT_INT32"}}}, {"name": "model_99/tf.strided_slice_36/StridedSlice/end", "op": "Const", "attr": {"value": {"tensor": {"dtype": "DT_INT32", "tensorShape": {"dim": [{"size": "3"}]}}}, "dtype": {"type": "DT_INT32"}}}, {"name": "model_99/tf.strided_slice_36/ones_like", "op": "Const", "attr": {"value": {"tensor": {"dtype": "DT_INT32", "tensorShape": {"dim": [{"size": "3"}]}}}, "dtype": {"type": "DT_INT32"}}}, {"name": "model_99/tf.reshape_66/Reshape/shape", "op": "Const", "attr": {"value": {"tensor": {"dtype": "DT_INT32", "tensorShape": {"dim": [{"size": "4"}]}}}, "dtype": {"type": "DT_INT32"}}}, {"name": "model_99/tf.compat.v1.transpose_388/transpose/perm", "op": "Const", "attr": {"value": {"tensor": {"dtype": "DT_INT32", "tensorShape": {"dim": [{"size": "4"}]}}}, "dtype": {"type": "DT_INT32"}}}, {"name": "model_99/tf.compat.v1.transpose_389/transpose/perm", "op": "Const", "attr": {"value": {"tensor": {"dtype": "DT_INT32", "tensorShape": {"dim": [{"size": "4"}]}}}, "dtype": {"type": "DT_INT32"}}}, {"name": "model_99/tf.nn.convolution_131/convolution/filter", "op": "Const", "attr": {"value": {"tensor": {"dtype": "DT_FLOAT", "tensorShape": {"dim": [{"size": "1"}, {"size": "1"}, {"size": "16"}, {"size": "1"}]}}}, "dtype": {"type": "DT_FLOAT"}}}, {"name": "model_99/tf.compat.v1.transpose_394/transpose/perm", "op": "Const", "attr": {"value": {"tensor": {"dtype": "DT_INT32", "tensorShape": {"dim": [{"size": "4"}]}}}, "dtype": {"type": "DT_INT32"}}}, {"name": "model_99/tf.reshape_69/Reshape/shape", "op": "Const", "attr": {"value": {"tensor": {"dtype": "DT_INT32", "tensorShape": {"dim": [{"size": "3"}]}}}, "dtype": {"type": "DT_INT32"}}}, {"name": "model_99/tf.strided_slice_38/ones_like/tensor", "op": "Const", "attr": {"value": {"tensor": {"dtype": "DT_INT64", "tensorShape": {"dim": [{"size": "3"}]}}}, "dtype": {"type": "DT_INT64"}}}, {"name": "model_99/tf.strided_slice_38/StridedSlice/end", "op": "Const", "attr": {"value": {"tensor": {"dtype": "DT_INT64", "tensorShape": {"dim": [{"size": "3"}]}}}, "dtype": {"type": "DT_INT64"}}}, {"name": "model_99/tf.strided_slice_38/ones_like", "op": "Const", "attr": {"value": {"tensor": {"dtype": "DT_INT64", "tensorShape": {"dim": [{"size": "3"}]}}}, "dtype": {"type": "DT_INT64"}}}, {"name": "model_99/tf.concat_50/concat/axis", "op": "Const", "attr": {"value": {"tensor": {"dtype": "DT_INT32", "tensorShape": {}}}, "dtype": {"type": "DT_INT32"}}}, {"name": "model_99/tf.math.multiply_534/Mul/y", "op": "Const", "attr": {"value": {"tensor": {"dtype": "DT_FLOAT", "tensorShape": {"dim": [{"size": "1"}, {"size": "1"}, {"size": "8400"}]}}}, "dtype": {"type": "DT_FLOAT"}}}, {"name": "model_99/tf.nn.convolution_104/convolution/filter", "op": "Const", "attr": {"value": {"tensor": {"dtype": "DT_FLOAT", "tensorShape": {"dim": [{"size": "3"}, {"size": "3"}, {"size": "64"}, {"size": "64"}]}}}, "dtype": {"type": "DT_FLOAT"}}}, {"name": "model_99/tf.math.add_146/Add/y", "op": "Const", "attr": {"value": {"tensor": {"dtype": "DT_FLOAT", "tensorShape": {"dim": [{"size": "64"}]}}}, "dtype": {"type": "DT_FLOAT"}}}, {"name": "model_99/tf.nn.convolution_106/convolution/filter", "op": "Const", "attr": {"value": {"tensor": {"dtype": "DT_FLOAT", "tensorShape": {"dim": [{"size": "3"}, {"size": "3"}, {"size": "64"}, {"size": "64"}]}}}, "dtype": {"type": "DT_FLOAT"}}}, {"name": "model_99/tf.math.add_148/Add/y", "op": "Const", "attr": {"value": {"tensor": {"dtype": "DT_FLOAT", "tensorShape": {"dim": [{"size": "64"}]}}}, "dtype": {"type": "DT_FLOAT"}}}, {"name": "model_99/tf.nn.convolution_109/convolution/filter", "op": "Const", "attr": {"value": {"tensor": {"dtype": "DT_FLOAT", "tensorShape": {"dim": [{"size": "1"}, {"size": "1"}, {"size": "64"}, {"size": "64"}]}}}, "dtype": {"type": "DT_FLOAT"}}}, {"name": "model_99/tf.math.add_151/Add/y", "op": "Const", "attr": {"value": {"tensor": {"dtype": "DT_FLOAT", "tensorShape": {"dim": [{"size": "64"}]}}}, "dtype": {"type": "DT_FLOAT"}}}, {"name": "model_99/tf.nn.convolution_105/convolution/filter", "op": "Const", "attr": {"value": {"tensor": {"dtype": "DT_FLOAT", "tensorShape": {"dim": [{"size": "3"}, {"size": "3"}, {"size": "64"}, {"size": "100"}]}}}, "dtype": {"type": "DT_FLOAT"}}}, {"name": "model_99/tf.math.add_147/Add/y", "op": "Const", "attr": {"value": {"tensor": {"dtype": "DT_FLOAT", "tensorShape": {"dim": [{"size": "100"}]}}}, "dtype": {"type": "DT_FLOAT"}}}, {"name": "model_99/tf.nn.convolution_107/convolution/filter", "op": "Const", "attr": {"value": {"tensor": {"dtype": "DT_FLOAT", "tensorShape": {"dim": [{"size": "3"}, {"size": "3"}, {"size": "100"}, {"size": "100"}]}}}, "dtype": {"type": "DT_FLOAT"}}}, {"name": "model_99/tf.math.add_149/Add/y", "op": "Const", "attr": {"value": {"tensor": {"dtype": "DT_FLOAT", "tensorShape": {"dim": [{"size": "100"}]}}}, "dtype": {"type": "DT_FLOAT"}}}, {"name": "model_99/tf.nn.convolution_110/convolution/filter", "op": "Const", "attr": {"value": {"tensor": {"dtype": "DT_FLOAT", "tensorShape": {"dim": [{"size": "1"}, {"size": "1"}, {"size": "100"}, {"size": "601"}]}}}, "dtype": {"type": "DT_FLOAT"}}}, {"name": "model_99/tf.math.add_152/Add/y", "op": "Const", "attr": {"value": {"tensor": {"dtype": "DT_FLOAT", "tensorShape": {"dim": [{"size": "601"}]}}}, "dtype": {"type": "DT_FLOAT"}}}, {"name": "model_99/tf.concat_40/concat/axis", "op": "Const", "attr": {"value": {"tensor": {"dtype": "DT_INT32", "tensorShape": {}}}, "dtype": {"type": "DT_INT32"}}}, {"name": "model_99/tf.compat.v1.transpose_355/transpose/perm", "op": "Const", "attr": {"value": {"tensor": {"dtype": "DT_INT32", "tensorShape": {"dim": [{"size": "4"}]}}}, "dtype": {"type": "DT_INT32"}}}, {"name": "model_99/tf.reshape_57/Reshape/shape", "op": "Const", "attr": {"value": {"tensor": {"dtype": "DT_INT32", "tensorShape": {"dim": [{"size": "3"}]}}}, "dtype": {"type": "DT_INT32"}}}, {"name": "model_99/tf.nn.convolution_115/convolution/filter", "op": "Const", "attr": {"value": {"tensor": {"dtype": "DT_FLOAT", "tensorShape": {"dim": [{"size": "3"}, {"size": "3"}, {"size": "128"}, {"size": "64"}]}}}, "dtype": {"type": "DT_FLOAT"}}}, {"name": "model_99/tf.math.add_157/Add/y", "op": "Const", "attr": {"value": {"tensor": {"dtype": "DT_FLOAT", "tensorShape": {"dim": [{"size": "64"}]}}}, "dtype": {"type": "DT_FLOAT"}}}, {"name": "model_99/tf.nn.convolution_117/convolution/filter", "op": "Const", "attr": {"value": {"tensor": {"dtype": "DT_FLOAT", "tensorShape": {"dim": [{"size": "3"}, {"size": "3"}, {"size": "64"}, {"size": "64"}]}}}, "dtype": {"type": "DT_FLOAT"}}}, {"name": "model_99/tf.math.add_159/Add/y", "op": "Const", "attr": {"value": {"tensor": {"dtype": "DT_FLOAT", "tensorShape": {"dim": [{"size": "64"}]}}}, "dtype": {"type": "DT_FLOAT"}}}, {"name": "model_99/tf.nn.convolution_120/convolution/filter", "op": "Const", "attr": {"value": {"tensor": {"dtype": "DT_FLOAT", "tensorShape": {"dim": [{"size": "1"}, {"size": "1"}, {"size": "64"}, {"size": "64"}]}}}, "dtype": {"type": "DT_FLOAT"}}}, {"name": "model_99/tf.math.add_162/Add/y", "op": "Const", "attr": {"value": {"tensor": {"dtype": "DT_FLOAT", "tensorShape": {"dim": [{"size": "64"}]}}}, "dtype": {"type": "DT_FLOAT"}}}, {"name": "model_99/tf.nn.convolution_116/convolution/filter", "op": "Const", "attr": {"value": {"tensor": {"dtype": "DT_FLOAT", "tensorShape": {"dim": [{"size": "3"}, {"size": "3"}, {"size": "128"}, {"size": "100"}]}}}, "dtype": {"type": "DT_FLOAT"}}}, {"name": "model_99/tf.math.add_158/Add/y", "op": "Const", "attr": {"value": {"tensor": {"dtype": "DT_FLOAT", "tensorShape": {"dim": [{"size": "100"}]}}}, "dtype": {"type": "DT_FLOAT"}}}, {"name": "model_99/tf.nn.convolution_118/convolution/filter", "op": "Const", "attr": {"value": {"tensor": {"dtype": "DT_FLOAT", "tensorShape": {"dim": [{"size": "3"}, {"size": "3"}, {"size": "100"}, {"size": "100"}]}}}, "dtype": {"type": "DT_FLOAT"}}}, {"name": "model_99/tf.math.add_160/Add/y", "op": "Const", "attr": {"value": {"tensor": {"dtype": "DT_FLOAT", "tensorShape": {"dim": [{"size": "100"}]}}}, "dtype": {"type": "DT_FLOAT"}}}, {"name": "model_99/tf.nn.convolution_121/convolution/filter", "op": "Const", "attr": {"value": {"tensor": {"dtype": "DT_FLOAT", "tensorShape": {"dim": [{"size": "1"}, {"size": "1"}, {"size": "100"}, {"size": "601"}]}}}, "dtype": {"type": "DT_FLOAT"}}}, {"name": "model_99/tf.math.add_163/Add/y", "op": "Const", "attr": {"value": {"tensor": {"dtype": "DT_FLOAT", "tensorShape": {"dim": [{"size": "601"}]}}}, "dtype": {"type": "DT_FLOAT"}}}, {"name": "model_99/tf.concat_43/concat/axis", "op": "Const", "attr": {"value": {"tensor": {"dtype": "DT_INT32", "tensorShape": {}}}, "dtype": {"type": "DT_INT32"}}}, {"name": "model_99/tf.compat.v1.transpose_369/transpose/perm", "op": "Const", "attr": {"value": {"tensor": {"dtype": "DT_INT32", "tensorShape": {"dim": [{"size": "4"}]}}}, "dtype": {"type": "DT_INT32"}}}, {"name": "model_99/tf.reshape_60/Reshape/shape", "op": "Const", "attr": {"value": {"tensor": {"dtype": "DT_INT32", "tensorShape": {"dim": [{"size": "3"}]}}}, "dtype": {"type": "DT_INT32"}}}, {"name": "model_99/tf.nn.convolution_125/convolution/filter", "op": "Const", "attr": {"value": {"tensor": {"dtype": "DT_FLOAT", "tensorShape": {"dim": [{"size": "3"}, {"size": "3"}, {"size": "256"}, {"size": "64"}]}}}, "dtype": {"type": "DT_FLOAT"}}}, {"name": "model_99/tf.math.add_167/Add/y", "op": "Const", "attr": {"value": {"tensor": {"dtype": "DT_FLOAT", "tensorShape": {"dim": [{"size": "64"}]}}}, "dtype": {"type": "DT_FLOAT"}}}, {"name": "model_99/tf.nn.convolution_127/convolution/filter", "op": "Const", "attr": {"value": {"tensor": {"dtype": "DT_FLOAT", "tensorShape": {"dim": [{"size": "3"}, {"size": "3"}, {"size": "64"}, {"size": "64"}]}}}, "dtype": {"type": "DT_FLOAT"}}}, {"name": "model_99/tf.math.add_169/Add/y", "op": "Const", "attr": {"value": {"tensor": {"dtype": "DT_FLOAT", "tensorShape": {"dim": [{"size": "64"}]}}}, "dtype": {"type": "DT_FLOAT"}}}, {"name": "model_99/tf.nn.convolution_129/convolution/filter", "op": "Const", "attr": {"value": {"tensor": {"dtype": "DT_FLOAT", "tensorShape": {"dim": [{"size": "1"}, {"size": "1"}, {"size": "64"}, {"size": "64"}]}}}, "dtype": {"type": "DT_FLOAT"}}}, {"name": "model_99/tf.math.add_171/Add/y", "op": "Const", "attr": {"value": {"tensor": {"dtype": "DT_FLOAT", "tensorShape": {"dim": [{"size": "64"}]}}}, "dtype": {"type": "DT_FLOAT"}}}, {"name": "model_99/tf.strided_slice_34/ones_like/tensor", "op": "Const", "attr": {"value": {"tensor": {"dtype": "DT_INT64", "tensorShape": {"dim": [{"size": "4"}]}}}, "dtype": {"type": "DT_INT64"}}}, {"name": "model_99/tf.strided_slice_34/StridedSlice/end", "op": "Const", "attr": {"value": {"tensor": {"dtype": "DT_INT64", "tensorShape": {"dim": [{"size": "4"}]}}}, "dtype": {"type": "DT_INT64"}}}, {"name": "model_99/tf.strided_slice_34/ones_like", "op": "Const", "attr": {"value": {"tensor": {"dtype": "DT_INT64", "tensorShape": {"dim": [{"size": "4"}]}}}, "dtype": {"type": "DT_INT64"}}}, {"name": "model_99/tf.strided_slice_32/ones_like/tensor", "op": "Const", "attr": {"value": {"tensor": {"dtype": "DT_INT64", "tensorShape": {"dim": [{"size": "4"}]}}}, "dtype": {"type": "DT_INT64"}}}, {"name": "model_99/tf.strided_slice_32/StridedSlice/end", "op": "Const", "attr": {"value": {"tensor": {"dtype": "DT_INT64", "tensorShape": {"dim": [{"size": "4"}]}}}, "dtype": {"type": "DT_INT64"}}}, {"name": "model_99/tf.strided_slice_32/ones_like", "op": "Const", "attr": {"value": {"tensor": {"dtype": "DT_INT64", "tensorShape": {"dim": [{"size": "4"}]}}}, "dtype": {"type": "DT_INT64"}}}, {"name": "model_99/tf.strided_slice_30/ones_like/tensor", "op": "Const", "attr": {"value": {"tensor": {"dtype": "DT_INT64", "tensorShape": {"dim": [{"size": "4"}]}}}, "dtype": {"type": "DT_INT64"}}}, {"name": "model_99/tf.strided_slice_30/StridedSlice/end", "op": "Const", "attr": {"value": {"tensor": {"dtype": "DT_INT64", "tensorShape": {"dim": [{"size": "4"}]}}}, "dtype": {"type": "DT_INT64"}}}, {"name": "model_99/tf.strided_slice_30/ones_like", "op": "Const", "attr": {"value": {"tensor": {"dtype": "DT_INT64", "tensorShape": {"dim": [{"size": "4"}]}}}, "dtype": {"type": "DT_INT64"}}}, {"name": "model_99/tf.image.resize_3/resize/size", "op": "Const", "attr": {"value": {"tensor": {"dtype": "DT_INT32", "tensorShape": {"dim": [{"size": "2"}]}}}, "dtype": {"type": "DT_INT32"}}}, {"name": "model_99/tf.concat_37/concat/axis", "op": "Const", "attr": {"value": {"tensor": {"dtype": "DT_INT32", "tensorShape": {}}}, "dtype": {"type": "DT_INT32"}}}, {"name": "model_99/tf.nn.convolution_99/convolution/filter", "op": "Const", "attr": {"value": {"tensor": {"dtype": "DT_FLOAT", "tensorShape": {"dim": [{"size": "1"}, {"size": "1"}, {"size": "192"}, {"size": "64"}]}}}, "dtype": {"type": "DT_FLOAT"}}}, {"name": "model_99/tf.math.add_141/Add/y", "op": "Const", "attr": {"value": {"tensor": {"dtype": "DT_FLOAT", "tensorShape": {"dim": [{"size": "64"}]}}}, "dtype": {"type": "DT_FLOAT"}}}, {"name": "model_99/tf.strided_slice_31/ones_like/tensor", "op": "Const", "attr": {"value": {"tensor": {"dtype": "DT_INT64", "tensorShape": {"dim": [{"size": "4"}]}}}, "dtype": {"type": "DT_INT64"}}}, {"name": "model_99/tf.strided_slice_31/StridedSlice/end", "op": "Const", "attr": {"value": {"tensor": {"dtype": "DT_INT64", "tensorShape": {"dim": [{"size": "4"}]}}}, "dtype": {"type": "DT_INT64"}}}, {"name": "model_99/tf.strided_slice_31/ones_like", "op": "Const", "attr": {"value": {"tensor": {"dtype": "DT_INT64", "tensorShape": {"dim": [{"size": "4"}]}}}, "dtype": {"type": "DT_INT64"}}}, {"name": "model_99/tf.nn.convolution_100/convolution/filter", "op": "Const", "attr": {"value": {"tensor": {"dtype": "DT_FLOAT", "tensorShape": {"dim": [{"size": "3"}, {"size": "3"}, {"size": "32"}, {"size": "32"}]}}}, "dtype": {"type": "DT_FLOAT"}}}, {"name": "model_99/tf.math.add_142/Add/y", "op": "Const", "attr": {"value": {"tensor": {"dtype": "DT_FLOAT", "tensorShape": {"dim": [{"size": "32"}]}}}, "dtype": {"type": "DT_FLOAT"}}}, {"name": "model_99/tf.nn.convolution_101/convolution/filter", "op": "Const", "attr": {"value": {"tensor": {"dtype": "DT_FLOAT", "tensorShape": {"dim": [{"size": "3"}, {"size": "3"}, {"size": "32"}, {"size": "32"}]}}}, "dtype": {"type": "DT_FLOAT"}}}, {"name": "model_99/tf.math.add_143/Add/y", "op": "Const", "attr": {"value": {"tensor": {"dtype": "DT_FLOAT", "tensorShape": {"dim": [{"size": "32"}]}}}, "dtype": {"type": "DT_FLOAT"}}}, {"name": "model_99/tf.concat_38/concat/axis", "op": "Const", "attr": {"value": {"tensor": {"dtype": "DT_INT32", "tensorShape": {}}}, "dtype": {"type": "DT_INT32"}}}, {"name": "model_99/tf.nn.convolution_102/convolution/filter", "op": "Const", "attr": {"value": {"tensor": {"dtype": "DT_FLOAT", "tensorShape": {"dim": [{"size": "1"}, {"size": "1"}, {"size": "96"}, {"size": "64"}]}}}, "dtype": {"type": "DT_FLOAT"}}}, {"name": "model_99/tf.math.add_144/Add/y", "op": "Const", "attr": {"value": {"tensor": {"dtype": "DT_FLOAT", "tensorShape": {"dim": [{"size": "64"}]}}}, "dtype": {"type": "DT_FLOAT"}}}, {"name": "model_99/tf.compat.v1.pad_12/Pad/paddings", "op": "Const", "attr": {"value": {"tensor": {"dtype": "DT_INT32", "tensorShape": {"dim": [{"size": "4"}, {"size": "2"}]}}}, "dtype": {"type": "DT_INT32"}}}, {"name": "model_99/tf.nn.convolution_103/convolution/filter", "op": "Const", "attr": {"value": {"tensor": {"dtype": "DT_FLOAT", "tensorShape": {"dim": [{"size": "3"}, {"size": "3"}, {"size": "64"}, {"size": "64"}]}}}, "dtype": {"type": "DT_FLOAT"}}}, {"name": "model_99/tf.math.add_145/Add/y", "op": "Const", "attr": {"value": {"tensor": {"dtype": "DT_FLOAT", "tensorShape": {"dim": [{"size": "64"}]}}}, "dtype": {"type": "DT_FLOAT"}}}, {"name": "model_99/tf.strided_slice_28/ones_like/tensor", "op": "Const", "attr": {"value": {"tensor": {"dtype": "DT_INT64", "tensorShape": {"dim": [{"size": "4"}]}}}, "dtype": {"type": "DT_INT64"}}}, {"name": "model_99/tf.strided_slice_28/StridedSlice/end", "op": "Const", "attr": {"value": {"tensor": {"dtype": "DT_INT64", "tensorShape": {"dim": [{"size": "4"}]}}}, "dtype": {"type": "DT_INT64"}}}, {"name": "model_99/tf.strided_slice_28/ones_like", "op": "Const", "attr": {"value": {"tensor": {"dtype": "DT_INT64", "tensorShape": {"dim": [{"size": "4"}]}}}, "dtype": {"type": "DT_INT64"}}}, {"name": "model_99/tf.image.resize_2/resize/size", "op": "Const", "attr": {"value": {"tensor": {"dtype": "DT_INT32", "tensorShape": {"dim": [{"size": "2"}]}}}, "dtype": {"type": "DT_INT32"}}}, {"name": "model_99/tf.concat_35/concat/axis", "op": "Const", "attr": {"value": {"tensor": {"dtype": "DT_INT32", "tensorShape": {}}}, "dtype": {"type": "DT_INT32"}}}, {"name": "model_99/tf.nn.convolution_95/convolution/filter", "op": "Const", "attr": {"value": {"tensor": {"dtype": "DT_FLOAT", "tensorShape": {"dim": [{"size": "1"}, {"size": "1"}, {"size": "384"}, {"size": "128"}]}}}, "dtype": {"type": "DT_FLOAT"}}}, {"name": "model_99/tf.math.add_137/Add/y", "op": "Const", "attr": {"value": {"tensor": {"dtype": "DT_FLOAT", "tensorShape": {"dim": [{"size": "128"}]}}}, "dtype": {"type": "DT_FLOAT"}}}, {"name": "model_99/tf.strided_slice_29/ones_like/tensor", "op": "Const", "attr": {"value": {"tensor": {"dtype": "DT_INT64", "tensorShape": {"dim": [{"size": "4"}]}}}, "dtype": {"type": "DT_INT64"}}}, {"name": "model_99/tf.strided_slice_29/StridedSlice/end", "op": "Const", "attr": {"value": {"tensor": {"dtype": "DT_INT64", "tensorShape": {"dim": [{"size": "4"}]}}}, "dtype": {"type": "DT_INT64"}}}, {"name": "model_99/tf.strided_slice_29/ones_like", "op": "Const", "attr": {"value": {"tensor": {"dtype": "DT_INT64", "tensorShape": {"dim": [{"size": "4"}]}}}, "dtype": {"type": "DT_INT64"}}}, {"name": "model_99/tf.nn.convolution_96/convolution/filter", "op": "Const", "attr": {"value": {"tensor": {"dtype": "DT_FLOAT", "tensorShape": {"dim": [{"size": "3"}, {"size": "3"}, {"size": "64"}, {"size": "64"}]}}}, "dtype": {"type": "DT_FLOAT"}}}, {"name": "model_99/tf.math.add_138/Add/y", "op": "Const", "attr": {"value": {"tensor": {"dtype": "DT_FLOAT", "tensorShape": {"dim": [{"size": "64"}]}}}, "dtype": {"type": "DT_FLOAT"}}}, {"name": "model_99/tf.nn.convolution_97/convolution/filter", "op": "Const", "attr": {"value": {"tensor": {"dtype": "DT_FLOAT", "tensorShape": {"dim": [{"size": "3"}, {"size": "3"}, {"size": "64"}, {"size": "64"}]}}}, "dtype": {"type": "DT_FLOAT"}}}, {"name": "model_99/tf.math.add_139/Add/y", "op": "Const", "attr": {"value": {"tensor": {"dtype": "DT_FLOAT", "tensorShape": {"dim": [{"size": "64"}]}}}, "dtype": {"type": "DT_FLOAT"}}}, {"name": "model_99/tf.concat_36/concat/axis", "op": "Const", "attr": {"value": {"tensor": {"dtype": "DT_INT32", "tensorShape": {}}}, "dtype": {"type": "DT_INT32"}}}, {"name": "model_99/tf.nn.convolution_98/convolution/filter", "op": "Const", "attr": {"value": {"tensor": {"dtype": "DT_FLOAT", "tensorShape": {"dim": [{"size": "1"}, {"size": "1"}, {"size": "192"}, {"size": "128"}]}}}, "dtype": {"type": "DT_FLOAT"}}}, {"name": "model_99/tf.math.add_140/Add/y", "op": "Const", "attr": {"value": {"tensor": {"dtype": "DT_FLOAT", "tensorShape": {"dim": [{"size": "128"}]}}}, "dtype": {"type": "DT_FLOAT"}}}, {"name": "model_99/tf.concat_39/concat/axis", "op": "Const", "attr": {"value": {"tensor": {"dtype": "DT_INT32", "tensorShape": {}}}, "dtype": {"type": "DT_INT32"}}}, {"name": "model_99/tf.nn.convolution_108/convolution/filter", "op": "Const", "attr": {"value": {"tensor": {"dtype": "DT_FLOAT", "tensorShape": {"dim": [{"size": "1"}, {"size": "1"}, {"size": "192"}, {"size": "128"}]}}}, "dtype": {"type": "DT_FLOAT"}}}, {"name": "model_99/tf.math.add_150/Add/y", "op": "Const", "attr": {"value": {"tensor": {"dtype": "DT_FLOAT", "tensorShape": {"dim": [{"size": "128"}]}}}, "dtype": {"type": "DT_FLOAT"}}}, {"name": "model_99/tf.strided_slice_33/ones_like/tensor", "op": "Const", "attr": {"value": {"tensor": {"dtype": "DT_INT64", "tensorShape": {"dim": [{"size": "4"}]}}}, "dtype": {"type": "DT_INT64"}}}, {"name": "model_99/tf.strided_slice_33/StridedSlice/end", "op": "Const", "attr": {"value": {"tensor": {"dtype": "DT_INT64", "tensorShape": {"dim": [{"size": "4"}]}}}, "dtype": {"type": "DT_INT64"}}}, {"name": "model_99/tf.strided_slice_33/ones_like", "op": "Const", "attr": {"value": {"tensor": {"dtype": "DT_INT64", "tensorShape": {"dim": [{"size": "4"}]}}}, "dtype": {"type": "DT_INT64"}}}, {"name": "model_99/tf.nn.convolution_111/convolution/filter", "op": "Const", "attr": {"value": {"tensor": {"dtype": "DT_FLOAT", "tensorShape": {"dim": [{"size": "3"}, {"size": "3"}, {"size": "64"}, {"size": "64"}]}}}, "dtype": {"type": "DT_FLOAT"}}}, {"name": "model_99/tf.math.add_153/Add/y", "op": "Const", "attr": {"value": {"tensor": {"dtype": "DT_FLOAT", "tensorShape": {"dim": [{"size": "64"}]}}}, "dtype": {"type": "DT_FLOAT"}}}, {"name": "model_99/tf.nn.convolution_112/convolution/filter", "op": "Const", "attr": {"value": {"tensor": {"dtype": "DT_FLOAT", "tensorShape": {"dim": [{"size": "3"}, {"size": "3"}, {"size": "64"}, {"size": "64"}]}}}, "dtype": {"type": "DT_FLOAT"}}}, {"name": "model_99/tf.math.add_154/Add/y", "op": "Const", "attr": {"value": {"tensor": {"dtype": "DT_FLOAT", "tensorShape": {"dim": [{"size": "64"}]}}}, "dtype": {"type": "DT_FLOAT"}}}, {"name": "model_99/tf.concat_41/concat/axis", "op": "Const", "attr": {"value": {"tensor": {"dtype": "DT_INT32", "tensorShape": {}}}, "dtype": {"type": "DT_INT32"}}}, {"name": "model_99/tf.nn.convolution_113/convolution/filter", "op": "Const", "attr": {"value": {"tensor": {"dtype": "DT_FLOAT", "tensorShape": {"dim": [{"size": "1"}, {"size": "1"}, {"size": "192"}, {"size": "128"}]}}}, "dtype": {"type": "DT_FLOAT"}}}, {"name": "model_99/tf.math.add_155/Add/y", "op": "Const", "attr": {"value": {"tensor": {"dtype": "DT_FLOAT", "tensorShape": {"dim": [{"size": "128"}]}}}, "dtype": {"type": "DT_FLOAT"}}}, {"name": "model_99/tf.compat.v1.pad_13/Pad/paddings", "op": "Const", "attr": {"value": {"tensor": {"dtype": "DT_INT32", "tensorShape": {"dim": [{"size": "4"}, {"size": "2"}]}}}, "dtype": {"type": "DT_INT32"}}}, {"name": "model_99/tf.nn.convolution_114/convolution/filter", "op": "Const", "attr": {"value": {"tensor": {"dtype": "DT_FLOAT", "tensorShape": {"dim": [{"size": "3"}, {"size": "3"}, {"size": "128"}, {"size": "128"}]}}}, "dtype": {"type": "DT_FLOAT"}}}, {"name": "model_99/tf.math.add_156/Add/y", "op": "Const", "attr": {"value": {"tensor": {"dtype": "DT_FLOAT", "tensorShape": {"dim": [{"size": "128"}]}}}, "dtype": {"type": "DT_FLOAT"}}}, {"name": "model_99/tf.strided_slice_26/ones_like/tensor", "op": "Const", "attr": {"value": {"tensor": {"dtype": "DT_INT64", "tensorShape": {"dim": [{"size": "4"}]}}}, "dtype": {"type": "DT_INT64"}}}, {"name": "model_99/tf.strided_slice_26/StridedSlice/end", "op": "Const", "attr": {"value": {"tensor": {"dtype": "DT_INT64", "tensorShape": {"dim": [{"size": "4"}]}}}, "dtype": {"type": "DT_INT64"}}}, {"name": "model_99/tf.strided_slice_26/ones_like", "op": "Const", "attr": {"value": {"tensor": {"dtype": "DT_INT64", "tensorShape": {"dim": [{"size": "4"}]}}}, "dtype": {"type": "DT_INT64"}}}, {"name": "model_99/tf.strided_slice_24/ones_like/tensor", "op": "Const", "attr": {"value": {"tensor": {"dtype": "DT_INT64", "tensorShape": {"dim": [{"size": "4"}]}}}, "dtype": {"type": "DT_INT64"}}}, {"name": "model_99/tf.strided_slice_24/StridedSlice/end", "op": "Const", "attr": {"value": {"tensor": {"dtype": "DT_INT64", "tensorShape": {"dim": [{"size": "4"}]}}}, "dtype": {"type": "DT_INT64"}}}, {"name": "model_99/tf.strided_slice_24/ones_like", "op": "Const", "attr": {"value": {"tensor": {"dtype": "DT_INT64", "tensorShape": {"dim": [{"size": "4"}]}}}, "dtype": {"type": "DT_INT64"}}}, {"name": "model_99/tf.strided_slice_22/ones_like/tensor", "op": "Const", "attr": {"value": {"tensor": {"dtype": "DT_INT64", "tensorShape": {"dim": [{"size": "4"}]}}}, "dtype": {"type": "DT_INT64"}}}, {"name": "model_99/tf.strided_slice_22/StridedSlice/end", "op": "Const", "attr": {"value": {"tensor": {"dtype": "DT_INT64", "tensorShape": {"dim": [{"size": "4"}]}}}, "dtype": {"type": "DT_INT64"}}}, {"name": "model_99/tf.strided_slice_22/ones_like", "op": "Const", "attr": {"value": {"tensor": {"dtype": "DT_INT64", "tensorShape": {"dim": [{"size": "4"}]}}}, "dtype": {"type": "DT_INT64"}}}, {"name": "model_99/tf.strided_slice_20/ones_like/tensor", "op": "Const", "attr": {"value": {"tensor": {"dtype": "DT_INT64", "tensorShape": {"dim": [{"size": "4"}]}}}, "dtype": {"type": "DT_INT64"}}}, {"name": "model_99/tf.strided_slice_20/StridedSlice/end", "op": "Const", "attr": {"value": {"tensor": {"dtype": "DT_INT64", "tensorShape": {"dim": [{"size": "4"}]}}}, "dtype": {"type": "DT_INT64"}}}, {"name": "model_99/tf.strided_slice_20/ones_like", "op": "Const", "attr": {"value": {"tensor": {"dtype": "DT_INT64", "tensorShape": {"dim": [{"size": "4"}]}}}, "dtype": {"type": "DT_INT64"}}}, {"name": "model_99/tf.compat.v1.pad_7/Pad/paddings", "op": "Const", "attr": {"value": {"tensor": {"dtype": "DT_INT32", "tensorShape": {"dim": [{"size": "4"}, {"size": "2"}]}}}, "dtype": {"type": "DT_INT32"}}}, {"name": "model_99/tf.nn.convolution_68/convolution/filter", "op": "Const", "attr": {"value": {"tensor": {"dtype": "DT_FLOAT", "tensorShape": {"dim": [{"size": "3"}, {"size": "3"}, {"size": "3"}, {"size": "16"}]}}}, "dtype": {"type": "DT_FLOAT"}}}, {"name": "model_99/tf.math.add_98/Add/y", "op": "Const", "attr": {"value": {"tensor": {"dtype": "DT_FLOAT", "tensorShape": {"dim": [{"size": "16"}]}}}, "dtype": {"type": "DT_FLOAT"}}}, {"name": "model_99/tf.compat.v1.pad_8/Pad/paddings", "op": "Const", "attr": {"value": {"tensor": {"dtype": "DT_INT32", "tensorShape": {"dim": [{"size": "4"}, {"size": "2"}]}}}, "dtype": {"type": "DT_INT32"}}}, {"name": "model_99/tf.nn.convolution_69/convolution/filter", "op": "Const", "attr": {"value": {"tensor": {"dtype": "DT_FLOAT", "tensorShape": {"dim": [{"size": "3"}, {"size": "3"}, {"size": "16"}, {"size": "32"}]}}}, "dtype": {"type": "DT_FLOAT"}}}, {"name": "model_99/tf.math.add_99/Add/y", "op": "Const", "attr": {"value": {"tensor": {"dtype": "DT_FLOAT", "tensorShape": {"dim": [{"size": "32"}]}}}, "dtype": {"type": "DT_FLOAT"}}}, {"name": "model_99/tf.nn.convolution_70/convolution/filter", "op": "Const", "attr": {"value": {"tensor": {"dtype": "DT_FLOAT", "tensorShape": {"dim": [{"size": "1"}, {"size": "1"}, {"size": "32"}, {"size": "32"}]}}}, "dtype": {"type": "DT_FLOAT"}}}, {"name": "model_99/tf.math.add_100/Add/y", "op": "Const", "attr": {"value": {"tensor": {"dtype": "DT_FLOAT", "tensorShape": {"dim": [{"size": "32"}]}}}, "dtype": {"type": "DT_FLOAT"}}}, {"name": "model_99/tf.strided_slice_21/ones_like/tensor", "op": "Const", "attr": {"value": {"tensor": {"dtype": "DT_INT64", "tensorShape": {"dim": [{"size": "4"}]}}}, "dtype": {"type": "DT_INT64"}}}, {"name": "model_99/tf.strided_slice_21/StridedSlice/end", "op": "Const", "attr": {"value": {"tensor": {"dtype": "DT_INT64", "tensorShape": {"dim": [{"size": "4"}]}}}, "dtype": {"type": "DT_INT64"}}}, {"name": "model_99/tf.strided_slice_21/ones_like", "op": "Const", "attr": {"value": {"tensor": {"dtype": "DT_INT64", "tensorShape": {"dim": [{"size": "4"}]}}}, "dtype": {"type": "DT_INT64"}}}, {"name": "model_99/tf.nn.convolution_71/convolution/filter", "op": "Const", "attr": {"value": {"tensor": {"dtype": "DT_FLOAT", "tensorShape": {"dim": [{"size": "3"}, {"size": "3"}, {"size": "16"}, {"size": "16"}]}}}, "dtype": {"type": "DT_FLOAT"}}}, {"name": "model_99/tf.math.add_101/Add/y", "op": "Const", "attr": {"value": {"tensor": {"dtype": "DT_FLOAT", "tensorShape": {"dim": [{"size": "16"}]}}}, "dtype": {"type": "DT_FLOAT"}}}, {"name": "model_99/tf.nn.convolution_72/convolution/filter", "op": "Const", "attr": {"value": {"tensor": {"dtype": "DT_FLOAT", "tensorShape": {"dim": [{"size": "3"}, {"size": "3"}, {"size": "16"}, {"size": "16"}]}}}, "dtype": {"type": "DT_FLOAT"}}}, {"name": "model_99/tf.math.add_102/Add/y", "op": "Const", "attr": {"value": {"tensor": {"dtype": "DT_FLOAT", "tensorShape": {"dim": [{"size": "16"}]}}}, "dtype": {"type": "DT_FLOAT"}}}, {"name": "model_99/tf.concat_30/concat/axis", "op": "Const", "attr": {"value": {"tensor": {"dtype": "DT_INT32", "tensorShape": {}}}, "dtype": {"type": "DT_INT32"}}}, {"name": "model_99/tf.nn.convolution_73/convolution/filter", "op": "Const", "attr": {"value": {"tensor": {"dtype": "DT_FLOAT", "tensorShape": {"dim": [{"size": "1"}, {"size": "1"}, {"size": "48"}, {"size": "32"}]}}}, "dtype": {"type": "DT_FLOAT"}}}, {"name": "model_99/tf.math.add_105/Add/y", "op": "Const", "attr": {"value": {"tensor": {"dtype": "DT_FLOAT", "tensorShape": {"dim": [{"size": "32"}]}}}, "dtype": {"type": "DT_FLOAT"}}}, {"name": "model_99/tf.compat.v1.pad_9/Pad/paddings", "op": "Const", "attr": {"value": {"tensor": {"dtype": "DT_INT32", "tensorShape": {"dim": [{"size": "4"}, {"size": "2"}]}}}, "dtype": {"type": "DT_INT32"}}}, {"name": "model_99/tf.nn.convolution_74/convolution/filter", "op": "Const", "attr": {"value": {"tensor": {"dtype": "DT_FLOAT", "tensorShape": {"dim": [{"size": "3"}, {"size": "3"}, {"size": "32"}, {"size": "64"}]}}}, "dtype": {"type": "DT_FLOAT"}}}, {"name": "model_99/tf.math.add_106/Add/y", "op": "Const", "attr": {"value": {"tensor": {"dtype": "DT_FLOAT", "tensorShape": {"dim": [{"size": "64"}]}}}, "dtype": {"type": "DT_FLOAT"}}}, {"name": "model_99/tf.nn.convolution_75/convolution/filter", "op": "Const", "attr": {"value": {"tensor": {"dtype": "DT_FLOAT", "tensorShape": {"dim": [{"size": "1"}, {"size": "1"}, {"size": "64"}, {"size": "64"}]}}}, "dtype": {"type": "DT_FLOAT"}}}, {"name": "model_99/tf.math.add_107/Add/y", "op": "Const", "attr": {"value": {"tensor": {"dtype": "DT_FLOAT", "tensorShape": {"dim": [{"size": "64"}]}}}, "dtype": {"type": "DT_FLOAT"}}}, {"name": "model_99/tf.strided_slice_23/ones_like/tensor", "op": "Const", "attr": {"value": {"tensor": {"dtype": "DT_INT64", "tensorShape": {"dim": [{"size": "4"}]}}}, "dtype": {"type": "DT_INT64"}}}, {"name": "model_99/tf.strided_slice_23/StridedSlice/end", "op": "Const", "attr": {"value": {"tensor": {"dtype": "DT_INT64", "tensorShape": {"dim": [{"size": "4"}]}}}, "dtype": {"type": "DT_INT64"}}}, {"name": "model_99/tf.strided_slice_23/ones_like", "op": "Const", "attr": {"value": {"tensor": {"dtype": "DT_INT64", "tensorShape": {"dim": [{"size": "4"}]}}}, "dtype": {"type": "DT_INT64"}}}, {"name": "model_99/tf.nn.convolution_76/convolution/filter", "op": "Const", "attr": {"value": {"tensor": {"dtype": "DT_FLOAT", "tensorShape": {"dim": [{"size": "3"}, {"size": "3"}, {"size": "32"}, {"size": "32"}]}}}, "dtype": {"type": "DT_FLOAT"}}}, {"name": "model_99/tf.math.add_108/Add/y", "op": "Const", "attr": {"value": {"tensor": {"dtype": "DT_FLOAT", "tensorShape": {"dim": [{"size": "32"}]}}}, "dtype": {"type": "DT_FLOAT"}}}, {"name": "model_99/tf.nn.convolution_77/convolution/filter", "op": "Const", "attr": {"value": {"tensor": {"dtype": "DT_FLOAT", "tensorShape": {"dim": [{"size": "3"}, {"size": "3"}, {"size": "32"}, {"size": "32"}]}}}, "dtype": {"type": "DT_FLOAT"}}}, {"name": "model_99/tf.math.add_109/Add/y", "op": "Const", "attr": {"value": {"tensor": {"dtype": "DT_FLOAT", "tensorShape": {"dim": [{"size": "32"}]}}}, "dtype": {"type": "DT_FLOAT"}}}, {"name": "model_99/tf.nn.convolution_78/convolution/filter", "op": "Const", "attr": {"value": {"tensor": {"dtype": "DT_FLOAT", "tensorShape": {"dim": [{"size": "3"}, {"size": "3"}, {"size": "32"}, {"size": "32"}]}}}, "dtype": {"type": "DT_FLOAT"}}}, {"name": "model_99/tf.math.add_112/Add/y", "op": "Const", "attr": {"value": {"tensor": {"dtype": "DT_FLOAT", "tensorShape": {"dim": [{"size": "32"}]}}}, "dtype": {"type": "DT_FLOAT"}}}, {"name": "model_99/tf.nn.convolution_79/convolution/filter", "op": "Const", "attr": {"value": {"tensor": {"dtype": "DT_FLOAT", "tensorShape": {"dim": [{"size": "3"}, {"size": "3"}, {"size": "32"}, {"size": "32"}]}}}, "dtype": {"type": "DT_FLOAT"}}}, {"name": "model_99/tf.math.add_113/Add/y", "op": "Const", "attr": {"value": {"tensor": {"dtype": "DT_FLOAT", "tensorShape": {"dim": [{"size": "32"}]}}}, "dtype": {"type": "DT_FLOAT"}}}, {"name": "model_99/tf.concat_31/concat/axis", "op": "Const", "attr": {"value": {"tensor": {"dtype": "DT_INT32", "tensorShape": {}}}, "dtype": {"type": "DT_INT32"}}}, {"name": "model_99/tf.nn.convolution_80/convolution/filter", "op": "Const", "attr": {"value": {"tensor": {"dtype": "DT_FLOAT", "tensorShape": {"dim": [{"size": "1"}, {"size": "1"}, {"size": "128"}, {"size": "64"}]}}}, "dtype": {"type": "DT_FLOAT"}}}, {"name": "model_99/tf.math.add_116/Add/y", "op": "Const", "attr": {"value": {"tensor": {"dtype": "DT_FLOAT", "tensorShape": {"dim": [{"size": "64"}]}}}, "dtype": {"type": "DT_FLOAT"}}}, {"name": "model_99/tf.compat.v1.pad_10/Pad/paddings", "op": "Const", "attr": {"value": {"tensor": {"dtype": "DT_INT32", "tensorShape": {"dim": [{"size": "4"}, {"size": "2"}]}}}, "dtype": {"type": "DT_INT32"}}}, {"name": "model_99/tf.nn.convolution_81/convolution/filter", "op": "Const", "attr": {"value": {"tensor": {"dtype": "DT_FLOAT", "tensorShape": {"dim": [{"size": "3"}, {"size": "3"}, {"size": "64"}, {"size": "128"}]}}}, "dtype": {"type": "DT_FLOAT"}}}, {"name": "model_99/tf.math.add_117/Add/y", "op": "Const", "attr": {"value": {"tensor": {"dtype": "DT_FLOAT", "tensorShape": {"dim": [{"size": "128"}]}}}, "dtype": {"type": "DT_FLOAT"}}}, {"name": "model_99/tf.nn.convolution_82/convolution/filter", "op": "Const", "attr": {"value": {"tensor": {"dtype": "DT_FLOAT", "tensorShape": {"dim": [{"size": "1"}, {"size": "1"}, {"size": "128"}, {"size": "128"}]}}}, "dtype": {"type": "DT_FLOAT"}}}, {"name": "model_99/tf.math.add_118/Add/y", "op": "Const", "attr": {"value": {"tensor": {"dtype": "DT_FLOAT", "tensorShape": {"dim": [{"size": "128"}]}}}, "dtype": {"type": "DT_FLOAT"}}}, {"name": "model_99/tf.strided_slice_25/ones_like/tensor", "op": "Const", "attr": {"value": {"tensor": {"dtype": "DT_INT64", "tensorShape": {"dim": [{"size": "4"}]}}}, "dtype": {"type": "DT_INT64"}}}, {"name": "model_99/tf.strided_slice_25/StridedSlice/end", "op": "Const", "attr": {"value": {"tensor": {"dtype": "DT_INT64", "tensorShape": {"dim": [{"size": "4"}]}}}, "dtype": {"type": "DT_INT64"}}}, {"name": "model_99/tf.strided_slice_25/ones_like", "op": "Const", "attr": {"value": {"tensor": {"dtype": "DT_INT64", "tensorShape": {"dim": [{"size": "4"}]}}}, "dtype": {"type": "DT_INT64"}}}, {"name": "model_99/tf.nn.convolution_83/convolution/filter", "op": "Const", "attr": {"value": {"tensor": {"dtype": "DT_FLOAT", "tensorShape": {"dim": [{"size": "3"}, {"size": "3"}, {"size": "64"}, {"size": "64"}]}}}, "dtype": {"type": "DT_FLOAT"}}}, {"name": "model_99/tf.math.add_119/Add/y", "op": "Const", "attr": {"value": {"tensor": {"dtype": "DT_FLOAT", "tensorShape": {"dim": [{"size": "64"}]}}}, "dtype": {"type": "DT_FLOAT"}}}, {"name": "model_99/tf.nn.convolution_84/convolution/filter", "op": "Const", "attr": {"value": {"tensor": {"dtype": "DT_FLOAT", "tensorShape": {"dim": [{"size": "3"}, {"size": "3"}, {"size": "64"}, {"size": "64"}]}}}, "dtype": {"type": "DT_FLOAT"}}}, {"name": "model_99/tf.math.add_120/Add/y", "op": "Const", "attr": {"value": {"tensor": {"dtype": "DT_FLOAT", "tensorShape": {"dim": [{"size": "64"}]}}}, "dtype": {"type": "DT_FLOAT"}}}, {"name": "model_99/tf.nn.convolution_85/convolution/filter", "op": "Const", "attr": {"value": {"tensor": {"dtype": "DT_FLOAT", "tensorShape": {"dim": [{"size": "3"}, {"size": "3"}, {"size": "64"}, {"size": "64"}]}}}, "dtype": {"type": "DT_FLOAT"}}}, {"name": "model_99/tf.math.add_123/Add/y", "op": "Const", "attr": {"value": {"tensor": {"dtype": "DT_FLOAT", "tensorShape": {"dim": [{"size": "64"}]}}}, "dtype": {"type": "DT_FLOAT"}}}, {"name": "model_99/tf.nn.convolution_86/convolution/filter", "op": "Const", "attr": {"value": {"tensor": {"dtype": "DT_FLOAT", "tensorShape": {"dim": [{"size": "3"}, {"size": "3"}, {"size": "64"}, {"size": "64"}]}}}, "dtype": {"type": "DT_FLOAT"}}}, {"name": "model_99/tf.math.add_124/Add/y", "op": "Const", "attr": {"value": {"tensor": {"dtype": "DT_FLOAT", "tensorShape": {"dim": [{"size": "64"}]}}}, "dtype": {"type": "DT_FLOAT"}}}, {"name": "model_99/tf.concat_32/concat/axis", "op": "Const", "attr": {"value": {"tensor": {"dtype": "DT_INT32", "tensorShape": {}}}, "dtype": {"type": "DT_INT32"}}}, {"name": "model_99/tf.nn.convolution_87/convolution/filter", "op": "Const", "attr": {"value": {"tensor": {"dtype": "DT_FLOAT", "tensorShape": {"dim": [{"size": "1"}, {"size": "1"}, {"size": "256"}, {"size": "128"}]}}}, "dtype": {"type": "DT_FLOAT"}}}, {"name": "model_99/tf.math.add_127/Add/y", "op": "Const", "attr": {"value": {"tensor": {"dtype": "DT_FLOAT", "tensorShape": {"dim": [{"size": "128"}]}}}, "dtype": {"type": "DT_FLOAT"}}}, {"name": "model_99/tf.compat.v1.pad_11/Pad/paddings", "op": "Const", "attr": {"value": {"tensor": {"dtype": "DT_INT32", "tensorShape": {"dim": [{"size": "4"}, {"size": "2"}]}}}, "dtype": {"type": "DT_INT32"}}}, {"name": "model_99/tf.nn.convolution_88/convolution/filter", "op": "Const", "attr": {"value": {"tensor": {"dtype": "DT_FLOAT", "tensorShape": {"dim": [{"size": "3"}, {"size": "3"}, {"size": "128"}, {"size": "256"}]}}}, "dtype": {"type": "DT_FLOAT"}}}, {"name": "model_99/tf.math.add_128/Add/y", "op": "Const", "attr": {"value": {"tensor": {"dtype": "DT_FLOAT", "tensorShape": {"dim": [{"size": "256"}]}}}, "dtype": {"type": "DT_FLOAT"}}}, {"name": "model_99/tf.nn.convolution_89/convolution/filter", "op": "Const", "attr": {"value": {"tensor": {"dtype": "DT_FLOAT", "tensorShape": {"dim": [{"size": "1"}, {"size": "1"}, {"size": "256"}, {"size": "256"}]}}}, "dtype": {"type": "DT_FLOAT"}}}, {"name": "model_99/tf.math.add_129/Add/y", "op": "Const", "attr": {"value": {"tensor": {"dtype": "DT_FLOAT", "tensorShape": {"dim": [{"size": "256"}]}}}, "dtype": {"type": "DT_FLOAT"}}}, {"name": "model_99/tf.strided_slice_27/ones_like/tensor", "op": "Const", "attr": {"value": {"tensor": {"dtype": "DT_INT64", "tensorShape": {"dim": [{"size": "4"}]}}}, "dtype": {"type": "DT_INT64"}}}, {"name": "model_99/tf.strided_slice_27/StridedSlice/end", "op": "Const", "attr": {"value": {"tensor": {"dtype": "DT_INT64", "tensorShape": {"dim": [{"size": "4"}]}}}, "dtype": {"type": "DT_INT64"}}}, {"name": "model_99/tf.strided_slice_27/ones_like", "op": "Const", "attr": {"value": {"tensor": {"dtype": "DT_INT64", "tensorShape": {"dim": [{"size": "4"}]}}}, "dtype": {"type": "DT_INT64"}}}, {"name": "model_99/tf.nn.convolution_90/convolution/filter", "op": "Const", "attr": {"value": {"tensor": {"dtype": "DT_FLOAT", "tensorShape": {"dim": [{"size": "3"}, {"size": "3"}, {"size": "128"}, {"size": "128"}]}}}, "dtype": {"type": "DT_FLOAT"}}}, {"name": "model_99/tf.math.add_130/Add/y", "op": "Const", "attr": {"value": {"tensor": {"dtype": "DT_FLOAT", "tensorShape": {"dim": [{"size": "128"}]}}}, "dtype": {"type": "DT_FLOAT"}}}, {"name": "model_99/tf.nn.convolution_91/convolution/filter", "op": "Const", "attr": {"value": {"tensor": {"dtype": "DT_FLOAT", "tensorShape": {"dim": [{"size": "3"}, {"size": "3"}, {"size": "128"}, {"size": "128"}]}}}, "dtype": {"type": "DT_FLOAT"}}}, {"name": "model_99/tf.math.add_131/Add/y", "op": "Const", "attr": {"value": {"tensor": {"dtype": "DT_FLOAT", "tensorShape": {"dim": [{"size": "128"}]}}}, "dtype": {"type": "DT_FLOAT"}}}, {"name": "model_99/tf.concat_33/concat/axis", "op": "Const", "attr": {"value": {"tensor": {"dtype": "DT_INT32", "tensorShape": {}}}, "dtype": {"type": "DT_INT32"}}}, {"name": "model_99/tf.nn.convolution_92/convolution/filter", "op": "Const", "attr": {"value": {"tensor": {"dtype": "DT_FLOAT", "tensorShape": {"dim": [{"size": "1"}, {"size": "1"}, {"size": "384"}, {"size": "256"}]}}}, "dtype": {"type": "DT_FLOAT"}}}, {"name": "model_99/tf.math.add_134/Add/y", "op": "Const", "attr": {"value": {"tensor": {"dtype": "DT_FLOAT", "tensorShape": {"dim": [{"size": "256"}]}}}, "dtype": {"type": "DT_FLOAT"}}}, {"name": "model_99/tf.nn.convolution_93/convolution/filter", "op": "Const", "attr": {"value": {"tensor": {"dtype": "DT_FLOAT", "tensorShape": {"dim": [{"size": "1"}, {"size": "1"}, {"size": "256"}, {"size": "128"}]}}}, "dtype": {"type": "DT_FLOAT"}}}, {"name": "model_99/tf.math.add_135/Add/y", "op": "Const", "attr": {"value": {"tensor": {"dtype": "DT_FLOAT", "tensorShape": {"dim": [{"size": "128"}]}}}, "dtype": {"type": "DT_FLOAT"}}}, {"name": "model_99/tf.concat_34/concat/axis", "op": "Const", "attr": {"value": {"tensor": {"dtype": "DT_INT32", "tensorShape": {}}}, "dtype": {"type": "DT_INT32"}}}, {"name": "model_99/tf.nn.convolution_94/convolution/filter", "op": "Const", "attr": {"value": {"tensor": {"dtype": "DT_FLOAT", "tensorShape": {"dim": [{"size": "1"}, {"size": "1"}, {"size": "512"}, {"size": "256"}]}}}, "dtype": {"type": "DT_FLOAT"}}}, {"name": "model_99/tf.math.add_136/Add/y", "op": "Const", "attr": {"value": {"tensor": {"dtype": "DT_FLOAT", "tensorShape": {"dim": [{"size": "256"}]}}}, "dtype": {"type": "DT_FLOAT"}}}, {"name": "model_99/tf.concat_42/concat/axis", "op": "Const", "attr": {"value": {"tensor": {"dtype": "DT_INT32", "tensorShape": {}}}, "dtype": {"type": "DT_INT32"}}}, {"name": "model_99/tf.nn.convolution_119/convolution/filter", "op": "Const", "attr": {"value": {"tensor": {"dtype": "DT_FLOAT", "tensorShape": {"dim": [{"size": "1"}, {"size": "1"}, {"size": "384"}, {"size": "256"}]}}}, "dtype": {"type": "DT_FLOAT"}}}, {"name": "model_99/tf.math.add_161/Add/y", "op": "Const", "attr": {"value": {"tensor": {"dtype": "DT_FLOAT", "tensorShape": {"dim": [{"size": "256"}]}}}, "dtype": {"type": "DT_FLOAT"}}}, {"name": "model_99/tf.strided_slice_35/ones_like/tensor", "op": "Const", "attr": {"value": {"tensor": {"dtype": "DT_INT64", "tensorShape": {"dim": [{"size": "4"}]}}}, "dtype": {"type": "DT_INT64"}}}, {"name": "model_99/tf.strided_slice_35/StridedSlice/end", "op": "Const", "attr": {"value": {"tensor": {"dtype": "DT_INT64", "tensorShape": {"dim": [{"size": "4"}]}}}, "dtype": {"type": "DT_INT64"}}}, {"name": "model_99/tf.strided_slice_35/ones_like", "op": "Const", "attr": {"value": {"tensor": {"dtype": "DT_INT64", "tensorShape": {"dim": [{"size": "4"}]}}}, "dtype": {"type": "DT_INT64"}}}, {"name": "model_99/tf.nn.convolution_122/convolution/filter", "op": "Const", "attr": {"value": {"tensor": {"dtype": "DT_FLOAT", "tensorShape": {"dim": [{"size": "3"}, {"size": "3"}, {"size": "128"}, {"size": "128"}]}}}, "dtype": {"type": "DT_FLOAT"}}}, {"name": "model_99/tf.math.add_164/Add/y", "op": "Const", "attr": {"value": {"tensor": {"dtype": "DT_FLOAT", "tensorShape": {"dim": [{"size": "128"}]}}}, "dtype": {"type": "DT_FLOAT"}}}, {"name": "model_99/tf.nn.convolution_123/convolution/filter", "op": "Const", "attr": {"value": {"tensor": {"dtype": "DT_FLOAT", "tensorShape": {"dim": [{"size": "3"}, {"size": "3"}, {"size": "128"}, {"size": "128"}]}}}, "dtype": {"type": "DT_FLOAT"}}}, {"name": "model_99/tf.math.add_165/Add/y", "op": "Const", "attr": {"value": {"tensor": {"dtype": "DT_FLOAT", "tensorShape": {"dim": [{"size": "128"}]}}}, "dtype": {"type": "DT_FLOAT"}}}, {"name": "model_99/tf.concat_44/concat/axis", "op": "Const", "attr": {"value": {"tensor": {"dtype": "DT_INT32", "tensorShape": {}}}, "dtype": {"type": "DT_INT32"}}}, {"name": "model_99/tf.nn.convolution_124/convolution/filter", "op": "Const", "attr": {"value": {"tensor": {"dtype": "DT_FLOAT", "tensorShape": {"dim": [{"size": "1"}, {"size": "1"}, {"size": "384"}, {"size": "256"}]}}}, "dtype": {"type": "DT_FLOAT"}}}, {"name": "model_99/tf.math.add_166/Add/y", "op": "Const", "attr": {"value": {"tensor": {"dtype": "DT_FLOAT", "tensorShape": {"dim": [{"size": "256"}]}}}, "dtype": {"type": "DT_FLOAT"}}}, {"name": "model_99/tf.nn.convolution_126/convolution/filter", "op": "Const", "attr": {"value": {"tensor": {"dtype": "DT_FLOAT", "tensorShape": {"dim": [{"size": "3"}, {"size": "3"}, {"size": "256"}, {"size": "100"}]}}}, "dtype": {"type": "DT_FLOAT"}}}, {"name": "model_99/tf.math.add_168/Add/y", "op": "Const", "attr": {"value": {"tensor": {"dtype": "DT_FLOAT", "tensorShape": {"dim": [{"size": "100"}]}}}, "dtype": {"type": "DT_FLOAT"}}}, {"name": "model_99/tf.nn.convolution_128/convolution/filter", "op": "Const", "attr": {"value": {"tensor": {"dtype": "DT_FLOAT", "tensorShape": {"dim": [{"size": "3"}, {"size": "3"}, {"size": "100"}, {"size": "100"}]}}}, "dtype": {"type": "DT_FLOAT"}}}, {"name": "model_99/tf.math.add_170/Add/y", "op": "Const", "attr": {"value": {"tensor": {"dtype": "DT_FLOAT", "tensorShape": {"dim": [{"size": "100"}]}}}, "dtype": {"type": "DT_FLOAT"}}}, {"name": "model_99/tf.nn.convolution_130/convolution/filter", "op": "Const", "attr": {"value": {"tensor": {"dtype": "DT_FLOAT", "tensorShape": {"dim": [{"size": "1"}, {"size": "1"}, {"size": "100"}, {"size": "601"}]}}}, "dtype": {"type": "DT_FLOAT"}}}, {"name": "model_99/tf.math.add_172/Add/y", "op": "Const", "attr": {"value": {"tensor": {"dtype": "DT_FLOAT", "tensorShape": {"dim": [{"size": "601"}]}}}, "dtype": {"type": "DT_FLOAT"}}}, {"name": "model_99/tf.concat_45/concat/axis", "op": "Const", "attr": {"value": {"tensor": {"dtype": "DT_INT32", "tensorShape": {}}}, "dtype": {"type": "DT_INT32"}}}, {"name": "model_99/tf.compat.v1.transpose_381/transpose/perm", "op": "Const", "attr": {"value": {"tensor": {"dtype": "DT_INT32", "tensorShape": {"dim": [{"size": "4"}]}}}, "dtype": {"type": "DT_INT32"}}}, {"name": "model_99/tf.reshape_63/Reshape/shape", "op": "Const", "attr": {"value": {"tensor": {"dtype": "DT_INT32", "tensorShape": {"dim": [{"size": "3"}]}}}, "dtype": {"type": "DT_INT32"}}}, {"name": "model_99/tf.concat_46/concat/axis", "op": "Const", "attr": {"value": {"tensor": {"dtype": "DT_INT32", "tensorShape": {}}}, "dtype": {"type": "DT_INT32"}}}, {"name": "model_99/tf.strided_slice_37/StridedSlice/begin", "op": "Const", "attr": {"value": {"tensor": {"dtype": "DT_INT32", "tensorShape": {"dim": [{"size": "3"}]}}}, "dtype": {"type": "DT_INT32"}}}, {"name": "model_99/tf.strided_slice_37/StridedSlice/end", "op": "Const", "attr": {"value": {"tensor": {"dtype": "DT_INT32", "tensorShape": {"dim": [{"size": "3"}]}}}, "dtype": {"type": "DT_INT32"}}}, {"name": "model_99/tf.strided_slice_37/ones_like", "op": "Const", "attr": {"value": {"tensor": {"dtype": "DT_INT32", "tensorShape": {"dim": [{"size": "3"}]}}}, "dtype": {"type": "DT_INT32"}}}, {"name": "model_99/output0/concat/axis", "op": "Const", "attr": {"value": {"tensor": {"dtype": "DT_INT32", "tensorShape": {}}}, "dtype": {"type": "DT_INT32"}}}, {"name": "x", "op": "Placeholder", "attr": {"shape": {"shape": {"dim": [{"size": "1"}, {"size": "640"}, {"size": "640"}, {"size": "3"}]}}, "dtype": {"type": "DT_FLOAT"}}}, {"name": "model_99/tf.compat.v1.pad_7/Pad", "op": "Pad", "input": ["x", "model_99/tf.compat.v1.pad_7/Pad/paddings"], "attr": {"Tpaddings": {"type": "DT_INT32"}, "T": {"type": "DT_FLOAT"}}}, {"name": "model_99/tf.math.add_98/Add", "op": "_FusedConv2D", "input": ["model_99/tf.compat.v1.pad_7/Pad", "model_99/tf.nn.convolution_68/convolution/filter", "model_99/tf.math.add_98/Add/y"], "device": "/device:CPU:0", "attr": {"num_host_args": {"i": "0"}, "data_format": {"s": "TkhXQw=="}, "filter_format": {"s": "SFdJTw=="}, "fused_ops": {"list": {"s": ["Qmlhc0FkZA=="]}}, "num_args": {"i": "1"}, "strides": {"list": {"i": ["1", "2", "2", "1"]}}, "TArgs": {"list": {"type": ["DT_FLOAT"]}}, "padding": {"s": "VkFMSUQ="}, "use_cudnn_on_gpu": {"b": true}, "leakyrelu_alpha": {"f": 0.2}, "epsilon": {"f": 0.0}, "T": {"type": "DT_FLOAT"}, "explicit_paddings": {"list": {}}, "dilations": {"list": {"i": ["1", "1", "1", "1"]}}}}, {"name": "model_99/tf.math.sigmoid_62/Sigmoid", "op": "Sigmoid", "input": ["model_99/tf.math.add_98/Add"], "attr": {"T": {"type": "DT_FLOAT"}}}, {"name": "model_99/tf.math.multiply_285/Mul", "op": "Mul", "input": ["model_99/tf.math.add_98/Add", "model_99/tf.math.sigmoid_62/Sigmoid"], "attr": {"T": {"type": "DT_FLOAT"}}}, {"name": "model_99/tf.compat.v1.pad_8/Pad", "op": "Pad", "input": ["model_99/tf.math.multiply_285/Mul", "model_99/tf.compat.v1.pad_8/Pad/paddings"], "attr": {"Tpaddings": {"type": "DT_INT32"}, "T": {"type": "DT_FLOAT"}}}, {"name": "model_99/tf.math.add_99/Add", "op": "_FusedConv2D", "input": ["model_99/tf.compat.v1.pad_8/Pad", "model_99/tf.nn.convolution_69/convolution/filter", "model_99/tf.math.add_99/Add/y"], "device": "/device:CPU:0", "attr": {"num_host_args": {"i": "0"}, "data_format": {"s": "TkhXQw=="}, "filter_format": {"s": "SFdJTw=="}, "strides": {"list": {"i": ["1", "2", "2", "1"]}}, "num_args": {"i": "1"}, "fused_ops": {"list": {"s": ["Qmlhc0FkZA=="]}}, "TArgs": {"list": {"type": ["DT_FLOAT"]}}, "padding": {"s": "VkFMSUQ="}, "use_cudnn_on_gpu": {"b": true}, "leakyrelu_alpha": {"f": 0.2}, "epsilon": {"f": 0.0}, "T": {"type": "DT_FLOAT"}, "explicit_paddings": {"list": {}}, "dilations": {"list": {"i": ["1", "1", "1", "1"]}}}}, {"name": "model_99/tf.math.sigmoid_63/Sigmoid", "op": "Sigmoid", "input": ["model_99/tf.math.add_99/Add"], "attr": {"T": {"type": "DT_FLOAT"}}}, {"name": "model_99/tf.math.multiply_289/Mul", "op": "Mul", "input": ["model_99/tf.math.add_99/Add", "model_99/tf.math.sigmoid_63/Sigmoid"], "attr": {"T": {"type": "DT_FLOAT"}}}, {"name": "model_99/tf.math.add_100/Add", "op": "_FusedConv2D", "input": ["model_99/tf.math.multiply_289/Mul", "model_99/tf.nn.convolution_70/convolution/filter", "model_99/tf.math.add_100/Add/y"], "device": "/device:CPU:0", "attr": {"num_host_args": {"i": "0"}, "data_format": {"s": "TkhXQw=="}, "filter_format": {"s": "SFdJTw=="}, "strides": {"list": {"i": ["1", "1", "1", "1"]}}, "num_args": {"i": "1"}, "fused_ops": {"list": {"s": ["Qmlhc0FkZA=="]}}, "TArgs": {"list": {"type": ["DT_FLOAT"]}}, "padding": {"s": "U0FNRQ=="}, "use_cudnn_on_gpu": {"b": true}, "leakyrelu_alpha": {"f": 0.2}, "epsilon": {"f": 0.0}, "T": {"type": "DT_FLOAT"}, "explicit_paddings": {"list": {}}, "dilations": {"list": {"i": ["1", "1", "1", "1"]}}}}, {"name": "model_99/tf.math.sigmoid_64/Sigmoid", "op": "Sigmoid", "input": ["model_99/tf.math.add_100/Add"], "attr": {"T": {"type": "DT_FLOAT"}}}, {"name": "model_99/tf.math.multiply_293/Mul", "op": "Mul", "input": ["model_99/tf.math.add_100/Add", "model_99/tf.math.sigmoid_64/Sigmoid"], "attr": {"T": {"type": "DT_FLOAT"}}}, {"name": "model_99/tf.strided_slice_20/StridedSlice", "op": "StridedSlice", "input": ["model_99/tf.math.multiply_293/Mul", "model_99/tf.strided_slice_20/ones_like/tensor", "model_99/tf.strided_slice_20/StridedSlice/end", "model_99/tf.strided_slice_20/ones_like"], "attr": {"shrink_axis_mask": {"i": "0"}, "new_axis_mask": {"i": "0"}, "Index": {"type": "DT_INT64"}, "begin_mask": {"i": "15"}, "end_mask": {"i": "7"}, "T": {"type": "DT_FLOAT"}, "ellipsis_mask": {"i": "0"}}}, {"name": "model_99/tf.strided_slice_21/StridedSlice", "op": "StridedSlice", "input": ["model_99/tf.math.multiply_293/Mul", "model_99/tf.strided_slice_21/ones_like/tensor", "model_99/tf.strided_slice_21/StridedSlice/end", "model_99/tf.strided_slice_21/ones_like"], "attr": {"shrink_axis_mask": {"i": "0"}, "new_axis_mask": {"i": "0"}, "Index": {"type": "DT_INT64"}, "begin_mask": {"i": "7"}, "T": {"type": "DT_FLOAT"}, "end_mask": {"i": "7"}, "ellipsis_mask": {"i": "0"}}}, {"name": "model_99/tf.math.add_101/Add", "op": "_FusedConv2D", "input": ["model_99/tf.strided_slice_21/StridedSlice", "model_99/tf.nn.convolution_71/convolution/filter", "model_99/tf.math.add_101/Add/y"], "device": "/device:CPU:0", "attr": {"num_host_args": {"i": "0"}, "data_format": {"s": "TkhXQw=="}, "filter_format": {"s": "SFdJTw=="}, "strides": {"list": {"i": ["1", "1", "1", "1"]}}, "num_args": {"i": "1"}, "fused_ops": {"list": {"s": ["Qmlhc0FkZA=="]}}, "TArgs": {"list": {"type": ["DT_FLOAT"]}}, "padding": {"s": "U0FNRQ=="}, "use_cudnn_on_gpu": {"b": true}, "leakyrelu_alpha": {"f": 0.2}, "epsilon": {"f": 0.0}, "T": {"type": "DT_FLOAT"}, "explicit_paddings": {"list": {}}, "dilations": {"list": {"i": ["1", "1", "1", "1"]}}}}, {"name": "model_99/tf.math.sigmoid_65/Sigmoid", "op": "Sigmoid", "input": ["model_99/tf.math.add_101/Add"], "attr": {"T": {"type": "DT_FLOAT"}}}, {"name": "model_99/tf.math.multiply_297/Mul", "op": "Mul", "input": ["model_99/tf.math.add_101/Add", "model_99/tf.math.sigmoid_65/Sigmoid"], "attr": {"T": {"type": "DT_FLOAT"}}}, {"name": "model_99/tf.math.add_102/Add", "op": "_FusedConv2D", "input": ["model_99/tf.math.multiply_297/Mul", "model_99/tf.nn.convolution_72/convolution/filter", "model_99/tf.math.add_102/Add/y"], "device": "/device:CPU:0", "attr": {"num_host_args": {"i": "0"}, "data_format": {"s": "TkhXQw=="}, "filter_format": {"s": "SFdJTw=="}, "strides": {"list": {"i": ["1", "1", "1", "1"]}}, "num_args": {"i": "1"}, "fused_ops": {"list": {"s": ["Qmlhc0FkZA=="]}}, "TArgs": {"list": {"type": ["DT_FLOAT"]}}, "padding": {"s": "U0FNRQ=="}, "use_cudnn_on_gpu": {"b": true}, "leakyrelu_alpha": {"f": 0.2}, "epsilon": {"f": 0.0}, "T": {"type": "DT_FLOAT"}, "explicit_paddings": {"list": {}}, "dilations": {"list": {"i": ["1", "1", "1", "1"]}}}}, {"name": "model_99/tf.math.sigmoid_66/Sigmoid", "op": "Sigmoid", "input": ["model_99/tf.math.add_102/Add"], "attr": {"T": {"type": "DT_FLOAT"}}}, {"name": "model_99/tf.math.multiply_301/Mul", "op": "Mul", "input": ["model_99/tf.math.add_102/Add", "model_99/tf.math.sigmoid_66/Sigmoid"], "attr": {"T": {"type": "DT_FLOAT"}}}, {"name": "model_99/tf.math.add_104/Add", "op": "AddV2", "input": ["model_99/tf.strided_slice_21/StridedSlice", "model_99/tf.math.multiply_301/Mul"], "attr": {"T": {"type": "DT_FLOAT"}}}, {"name": "model_99/tf.concat_30/concat", "op": "ConcatV2", "input": ["model_99/tf.strided_slice_20/StridedSlice", "model_99/tf.strided_slice_21/StridedSlice", "model_99/tf.math.add_104/Add", "model_99/tf.concat_30/concat/axis"], "attr": {"N": {"i": "3"}, "T": {"type": "DT_FLOAT"}, "Tidx": {"type": "DT_INT32"}}}, {"name": "model_99/tf.math.add_105/Add", "op": "_FusedConv2D", "input": ["model_99/tf.concat_30/concat", "model_99/tf.nn.convolution_73/convolution/filter", "model_99/tf.math.add_105/Add/y"], "device": "/device:CPU:0", "attr": {"num_host_args": {"i": "0"}, "data_format": {"s": "TkhXQw=="}, "filter_format": {"s": "SFdJTw=="}, "strides": {"list": {"i": ["1", "1", "1", "1"]}}, "num_args": {"i": "1"}, "fused_ops": {"list": {"s": ["Qmlhc0FkZA=="]}}, "TArgs": {"list": {"type": ["DT_FLOAT"]}}, "padding": {"s": "U0FNRQ=="}, "use_cudnn_on_gpu": {"b": true}, "leakyrelu_alpha": {"f": 0.2}, "epsilon": {"f": 0.0}, "T": {"type": "DT_FLOAT"}, "explicit_paddings": {"list": {}}, "dilations": {"list": {"i": ["1", "1", "1", "1"]}}}}, {"name": "model_99/tf.math.sigmoid_67/Sigmoid", "op": "Sigmoid", "input": ["model_99/tf.math.add_105/Add"], "attr": {"T": {"type": "DT_FLOAT"}}}, {"name": "model_99/tf.math.multiply_307/Mul", "op": "Mul", "input": ["model_99/tf.math.add_105/Add", "model_99/tf.math.sigmoid_67/Sigmoid"], "attr": {"T": {"type": "DT_FLOAT"}}}, {"name": "model_99/tf.compat.v1.pad_9/Pad", "op": "Pad", "input": ["model_99/tf.math.multiply_307/Mul", "model_99/tf.compat.v1.pad_9/Pad/paddings"], "attr": {"Tpaddings": {"type": "DT_INT32"}, "T": {"type": "DT_FLOAT"}}}, {"name": "model_99/tf.math.add_106/Add", "op": "_FusedConv2D", "input": ["model_99/tf.compat.v1.pad_9/Pad", "model_99/tf.nn.convolution_74/convolution/filter", "model_99/tf.math.add_106/Add/y"], "device": "/device:CPU:0", "attr": {"num_host_args": {"i": "0"}, "data_format": {"s": "TkhXQw=="}, "filter_format": {"s": "SFdJTw=="}, "fused_ops": {"list": {"s": ["Qmlhc0FkZA=="]}}, "num_args": {"i": "1"}, "strides": {"list": {"i": ["1", "2", "2", "1"]}}, "TArgs": {"list": {"type": ["DT_FLOAT"]}}, "padding": {"s": "VkFMSUQ="}, "use_cudnn_on_gpu": {"b": true}, "leakyrelu_alpha": {"f": 0.2}, "epsilon": {"f": 0.0}, "T": {"type": "DT_FLOAT"}, "explicit_paddings": {"list": {}}, "dilations": {"list": {"i": ["1", "1", "1", "1"]}}}}, {"name": "model_99/tf.math.sigmoid_68/Sigmoid", "op": "Sigmoid", "input": ["model_99/tf.math.add_106/Add"], "attr": {"T": {"type": "DT_FLOAT"}}}, {"name": "model_99/tf.math.multiply_311/Mul", "op": "Mul", "input": ["model_99/tf.math.add_106/Add", "model_99/tf.math.sigmoid_68/Sigmoid"], "attr": {"T": {"type": "DT_FLOAT"}}}, {"name": "model_99/tf.math.add_107/Add", "op": "_FusedConv2D", "input": ["model_99/tf.math.multiply_311/Mul", "model_99/tf.nn.convolution_75/convolution/filter", "model_99/tf.math.add_107/Add/y"], "device": "/device:CPU:0", "attr": {"num_host_args": {"i": "0"}, "data_format": {"s": "TkhXQw=="}, "filter_format": {"s": "SFdJTw=="}, "strides": {"list": {"i": ["1", "1", "1", "1"]}}, "num_args": {"i": "1"}, "fused_ops": {"list": {"s": ["Qmlhc0FkZA=="]}}, "TArgs": {"list": {"type": ["DT_FLOAT"]}}, "padding": {"s": "U0FNRQ=="}, "use_cudnn_on_gpu": {"b": true}, "leakyrelu_alpha": {"f": 0.2}, "epsilon": {"f": 0.0}, "T": {"type": "DT_FLOAT"}, "explicit_paddings": {"list": {}}, "dilations": {"list": {"i": ["1", "1", "1", "1"]}}}}, {"name": "model_99/tf.math.sigmoid_69/Sigmoid", "op": "Sigmoid", "input": ["model_99/tf.math.add_107/Add"], "attr": {"T": {"type": "DT_FLOAT"}}}, {"name": "model_99/tf.math.multiply_315/Mul", "op": "Mul", "input": ["model_99/tf.math.add_107/Add", "model_99/tf.math.sigmoid_69/Sigmoid"], "attr": {"T": {"type": "DT_FLOAT"}}}, {"name": "model_99/tf.strided_slice_22/StridedSlice", "op": "StridedSlice", "input": ["model_99/tf.math.multiply_315/Mul", "model_99/tf.strided_slice_22/ones_like/tensor", "model_99/tf.strided_slice_22/StridedSlice/end", "model_99/tf.strided_slice_22/ones_like"], "attr": {"shrink_axis_mask": {"i": "0"}, "Index": {"type": "DT_INT64"}, "new_axis_mask": {"i": "0"}, "begin_mask": {"i": "15"}, "end_mask": {"i": "7"}, "T": {"type": "DT_FLOAT"}, "ellipsis_mask": {"i": "0"}}}, {"name": "model_99/tf.strided_slice_23/StridedSlice", "op": "StridedSlice", "input": ["model_99/tf.math.multiply_315/Mul", "model_99/tf.strided_slice_23/ones_like/tensor", "model_99/tf.strided_slice_23/StridedSlice/end", "model_99/tf.strided_slice_23/ones_like"], "attr": {"shrink_axis_mask": {"i": "0"}, "new_axis_mask": {"i": "0"}, "Index": {"type": "DT_INT64"}, "begin_mask": {"i": "7"}, "end_mask": {"i": "7"}, "T": {"type": "DT_FLOAT"}, "ellipsis_mask": {"i": "0"}}}, {"name": "model_99/tf.math.add_108/Add", "op": "_FusedConv2D", "input": ["model_99/tf.strided_slice_23/StridedSlice", "model_99/tf.nn.convolution_76/convolution/filter", "model_99/tf.math.add_108/Add/y"], "device": "/device:CPU:0", "attr": {"num_host_args": {"i": "0"}, "data_format": {"s": "TkhXQw=="}, "filter_format": {"s": "SFdJTw=="}, "strides": {"list": {"i": ["1", "1", "1", "1"]}}, "num_args": {"i": "1"}, "fused_ops": {"list": {"s": ["Qmlhc0FkZA=="]}}, "TArgs": {"list": {"type": ["DT_FLOAT"]}}, "padding": {"s": "U0FNRQ=="}, "use_cudnn_on_gpu": {"b": true}, "leakyrelu_alpha": {"f": 0.2}, "epsilon": {"f": 0.0}, "T": {"type": "DT_FLOAT"}, "explicit_paddings": {"list": {}}, "dilations": {"list": {"i": ["1", "1", "1", "1"]}}}}, {"name": "model_99/tf.math.sigmoid_70/Sigmoid", "op": "Sigmoid", "input": ["model_99/tf.math.add_108/Add"], "attr": {"T": {"type": "DT_FLOAT"}}}, {"name": "model_99/tf.math.multiply_319/Mul", "op": "Mul", "input": ["model_99/tf.math.add_108/Add", "model_99/tf.math.sigmoid_70/Sigmoid"], "attr": {"T": {"type": "DT_FLOAT"}}}, {"name": "model_99/tf.math.add_109/Add", "op": "_FusedConv2D", "input": ["model_99/tf.math.multiply_319/Mul", "model_99/tf.nn.convolution_77/convolution/filter", "model_99/tf.math.add_109/Add/y"], "device": "/device:CPU:0", "attr": {"num_host_args": {"i": "0"}, "data_format": {"s": "TkhXQw=="}, "filter_format": {"s": "SFdJTw=="}, "strides": {"list": {"i": ["1", "1", "1", "1"]}}, "num_args": {"i": "1"}, "fused_ops": {"list": {"s": ["Qmlhc0FkZA=="]}}, "TArgs": {"list": {"type": ["DT_FLOAT"]}}, "padding": {"s": "U0FNRQ=="}, "use_cudnn_on_gpu": {"b": true}, "leakyrelu_alpha": {"f": 0.2}, "epsilon": {"f": 0.0}, "T": {"type": "DT_FLOAT"}, "explicit_paddings": {"list": {}}, "dilations": {"list": {"i": ["1", "1", "1", "1"]}}}}, {"name": "model_99/tf.math.sigmoid_71/Sigmoid", "op": "Sigmoid", "input": ["model_99/tf.math.add_109/Add"], "attr": {"T": {"type": "DT_FLOAT"}}}, {"name": "model_99/tf.math.multiply_323/Mul", "op": "Mul", "input": ["model_99/tf.math.add_109/Add", "model_99/tf.math.sigmoid_71/Sigmoid"], "attr": {"T": {"type": "DT_FLOAT"}}}, {"name": "model_99/tf.math.add_111/Add", "op": "AddV2", "input": ["model_99/tf.strided_slice_23/StridedSlice", "model_99/tf.math.multiply_323/Mul"], "attr": {"T": {"type": "DT_FLOAT"}}}, {"name": "model_99/tf.math.add_112/Add", "op": "_FusedConv2D", "input": ["model_99/tf.math.add_111/Add", "model_99/tf.nn.convolution_78/convolution/filter", "model_99/tf.math.add_112/Add/y"], "device": "/device:CPU:0", "attr": {"num_host_args": {"i": "0"}, "data_format": {"s": "TkhXQw=="}, "filter_format": {"s": "SFdJTw=="}, "strides": {"list": {"i": ["1", "1", "1", "1"]}}, "num_args": {"i": "1"}, "fused_ops": {"list": {"s": ["Qmlhc0FkZA=="]}}, "TArgs": {"list": {"type": ["DT_FLOAT"]}}, "padding": {"s": "U0FNRQ=="}, "use_cudnn_on_gpu": {"b": true}, "leakyrelu_alpha": {"f": 0.2}, "epsilon": {"f": 0.0}, "T": {"type": "DT_FLOAT"}, "explicit_paddings": {"list": {}}, "dilations": {"list": {"i": ["1", "1", "1", "1"]}}}}, {"name": "model_99/tf.math.sigmoid_72/Sigmoid", "op": "Sigmoid", "input": ["model_99/tf.math.add_112/Add"], "attr": {"T": {"type": "DT_FLOAT"}}}, {"name": "model_99/tf.math.multiply_329/Mul", "op": "Mul", "input": ["model_99/tf.math.add_112/Add", "model_99/tf.math.sigmoid_72/Sigmoid"], "attr": {"T": {"type": "DT_FLOAT"}}}, {"name": "model_99/tf.math.add_113/Add", "op": "_FusedConv2D", "input": ["model_99/tf.math.multiply_329/Mul", "model_99/tf.nn.convolution_79/convolution/filter", "model_99/tf.math.add_113/Add/y"], "device": "/device:CPU:0", "attr": {"num_host_args": {"i": "0"}, "data_format": {"s": "TkhXQw=="}, "filter_format": {"s": "SFdJTw=="}, "fused_ops": {"list": {"s": ["Qmlhc0FkZA=="]}}, "num_args": {"i": "1"}, "strides": {"list": {"i": ["1", "1", "1", "1"]}}, "TArgs": {"list": {"type": ["DT_FLOAT"]}}, "padding": {"s": "U0FNRQ=="}, "use_cudnn_on_gpu": {"b": true}, "leakyrelu_alpha": {"f": 0.2}, "epsilon": {"f": 0.0}, "T": {"type": "DT_FLOAT"}, "explicit_paddings": {"list": {}}, "dilations": {"list": {"i": ["1", "1", "1", "1"]}}}}, {"name": "model_99/tf.math.sigmoid_73/Sigmoid", "op": "Sigmoid", "input": ["model_99/tf.math.add_113/Add"], "attr": {"T": {"type": "DT_FLOAT"}}}, {"name": "model_99/tf.math.multiply_333/Mul", "op": "Mul", "input": ["model_99/tf.math.add_113/Add", "model_99/tf.math.sigmoid_73/Sigmoid"], "attr": {"T": {"type": "DT_FLOAT"}}}, {"name": "model_99/tf.math.add_115/Add", "op": "AddV2", "input": ["model_99/tf.math.add_111/Add", "model_99/tf.math.multiply_333/Mul"], "attr": {"T": {"type": "DT_FLOAT"}}}, {"name": "model_99/tf.concat_31/concat", "op": "ConcatV2", "input": ["model_99/tf.strided_slice_22/StridedSlice", "model_99/tf.strided_slice_23/StridedSlice", "model_99/tf.math.add_111/Add", "model_99/tf.math.add_115/Add", "model_99/tf.concat_31/concat/axis"], "attr": {"N": {"i": "4"}, "T": {"type": "DT_FLOAT"}, "Tidx": {"type": "DT_INT32"}}}, {"name": "model_99/tf.math.add_116/Add", "op": "_FusedConv2D", "input": ["model_99/tf.concat_31/concat", "model_99/tf.nn.convolution_80/convolution/filter", "model_99/tf.math.add_116/Add/y"], "device": "/device:CPU:0", "attr": {"num_host_args": {"i": "0"}, "data_format": {"s": "TkhXQw=="}, "filter_format": {"s": "SFdJTw=="}, "strides": {"list": {"i": ["1", "1", "1", "1"]}}, "num_args": {"i": "1"}, "fused_ops": {"list": {"s": ["Qmlhc0FkZA=="]}}, "TArgs": {"list": {"type": ["DT_FLOAT"]}}, "padding": {"s": "U0FNRQ=="}, "use_cudnn_on_gpu": {"b": true}, "leakyrelu_alpha": {"f": 0.2}, "epsilon": {"f": 0.0}, "T": {"type": "DT_FLOAT"}, "explicit_paddings": {"list": {}}, "dilations": {"list": {"i": ["1", "1", "1", "1"]}}}}, {"name": "model_99/tf.math.sigmoid_74/Sigmoid", "op": "Sigmoid", "input": ["model_99/tf.math.add_116/Add"], "attr": {"T": {"type": "DT_FLOAT"}}}, {"name": "model_99/tf.math.multiply_339/Mul", "op": "Mul", "input": ["model_99/tf.math.add_116/Add", "model_99/tf.math.sigmoid_74/Sigmoid"], "attr": {"T": {"type": "DT_FLOAT"}}}, {"name": "model_99/tf.compat.v1.pad_10/Pad", "op": "Pad", "input": ["model_99/tf.math.multiply_339/Mul", "model_99/tf.compat.v1.pad_10/Pad/paddings"], "attr": {"Tpaddings": {"type": "DT_INT32"}, "T": {"type": "DT_FLOAT"}}}, {"name": "model_99/tf.math.add_117/Add", "op": "_FusedConv2D", "input": ["model_99/tf.compat.v1.pad_10/Pad", "model_99/tf.nn.convolution_81/convolution/filter", "model_99/tf.math.add_117/Add/y"], "device": "/device:CPU:0", "attr": {"num_host_args": {"i": "0"}, "data_format": {"s": "TkhXQw=="}, "filter_format": {"s": "SFdJTw=="}, "fused_ops": {"list": {"s": ["Qmlhc0FkZA=="]}}, "num_args": {"i": "1"}, "strides": {"list": {"i": ["1", "2", "2", "1"]}}, "TArgs": {"list": {"type": ["DT_FLOAT"]}}, "padding": {"s": "VkFMSUQ="}, "use_cudnn_on_gpu": {"b": true}, "leakyrelu_alpha": {"f": 0.2}, "epsilon": {"f": 0.0}, "T": {"type": "DT_FLOAT"}, "explicit_paddings": {"list": {}}, "dilations": {"list": {"i": ["1", "1", "1", "1"]}}}}, {"name": "model_99/tf.math.sigmoid_75/Sigmoid", "op": "Sigmoid", "input": ["model_99/tf.math.add_117/Add"], "attr": {"T": {"type": "DT_FLOAT"}}}, {"name": "model_99/tf.math.multiply_343/Mul", "op": "Mul", "input": ["model_99/tf.math.add_117/Add", "model_99/tf.math.sigmoid_75/Sigmoid"], "attr": {"T": {"type": "DT_FLOAT"}}}, {"name": "model_99/tf.math.add_118/Add", "op": "_FusedConv2D", "input": ["model_99/tf.math.multiply_343/Mul", "model_99/tf.nn.convolution_82/convolution/filter", "model_99/tf.math.add_118/Add/y"], "device": "/device:CPU:0", "attr": {"num_host_args": {"i": "0"}, "data_format": {"s": "TkhXQw=="}, "filter_format": {"s": "SFdJTw=="}, "fused_ops": {"list": {"s": ["Qmlhc0FkZA=="]}}, "num_args": {"i": "1"}, "strides": {"list": {"i": ["1", "1", "1", "1"]}}, "TArgs": {"list": {"type": ["DT_FLOAT"]}}, "padding": {"s": "U0FNRQ=="}, "use_cudnn_on_gpu": {"b": true}, "leakyrelu_alpha": {"f": 0.2}, "epsilon": {"f": 0.0}, "T": {"type": "DT_FLOAT"}, "explicit_paddings": {"list": {}}, "dilations": {"list": {"i": ["1", "1", "1", "1"]}}}}, {"name": "model_99/tf.math.sigmoid_76/Sigmoid", "op": "Sigmoid", "input": ["model_99/tf.math.add_118/Add"], "attr": {"T": {"type": "DT_FLOAT"}}}, {"name": "model_99/tf.math.multiply_347/Mul", "op": "Mul", "input": ["model_99/tf.math.add_118/Add", "model_99/tf.math.sigmoid_76/Sigmoid"], "attr": {"T": {"type": "DT_FLOAT"}}}, {"name": "model_99/tf.strided_slice_24/StridedSlice", "op": "StridedSlice", "input": ["model_99/tf.math.multiply_347/Mul", "model_99/tf.strided_slice_24/ones_like/tensor", "model_99/tf.strided_slice_24/StridedSlice/end", "model_99/tf.strided_slice_24/ones_like"], "attr": {"shrink_axis_mask": {"i": "0"}, "Index": {"type": "DT_INT64"}, "new_axis_mask": {"i": "0"}, "begin_mask": {"i": "15"}, "end_mask": {"i": "7"}, "T": {"type": "DT_FLOAT"}, "ellipsis_mask": {"i": "0"}}}, {"name": "model_99/tf.strided_slice_25/StridedSlice", "op": "StridedSlice", "input": ["model_99/tf.math.multiply_347/Mul", "model_99/tf.strided_slice_25/ones_like/tensor", "model_99/tf.strided_slice_25/StridedSlice/end", "model_99/tf.strided_slice_25/ones_like"], "attr": {"shrink_axis_mask": {"i": "0"}, "new_axis_mask": {"i": "0"}, "Index": {"type": "DT_INT64"}, "begin_mask": {"i": "7"}, "end_mask": {"i": "7"}, "T": {"type": "DT_FLOAT"}, "ellipsis_mask": {"i": "0"}}}, {"name": "model_99/tf.math.add_119/Add", "op": "_FusedConv2D", "input": ["model_99/tf.strided_slice_25/StridedSlice", "model_99/tf.nn.convolution_83/convolution/filter", "model_99/tf.math.add_119/Add/y"], "device": "/device:CPU:0", "attr": {"num_host_args": {"i": "0"}, "data_format": {"s": "TkhXQw=="}, "filter_format": {"s": "SFdJTw=="}, "fused_ops": {"list": {"s": ["Qmlhc0FkZA=="]}}, "num_args": {"i": "1"}, "strides": {"list": {"i": ["1", "1", "1", "1"]}}, "TArgs": {"list": {"type": ["DT_FLOAT"]}}, "padding": {"s": "U0FNRQ=="}, "use_cudnn_on_gpu": {"b": true}, "leakyrelu_alpha": {"f": 0.2}, "epsilon": {"f": 0.0}, "T": {"type": "DT_FLOAT"}, "explicit_paddings": {"list": {}}, "dilations": {"list": {"i": ["1", "1", "1", "1"]}}}}, {"name": "model_99/tf.math.sigmoid_77/Sigmoid", "op": "Sigmoid", "input": ["model_99/tf.math.add_119/Add"], "attr": {"T": {"type": "DT_FLOAT"}}}, {"name": "model_99/tf.math.multiply_351/Mul", "op": "Mul", "input": ["model_99/tf.math.add_119/Add", "model_99/tf.math.sigmoid_77/Sigmoid"], "attr": {"T": {"type": "DT_FLOAT"}}}, {"name": "model_99/tf.math.add_120/Add", "op": "_FusedConv2D", "input": ["model_99/tf.math.multiply_351/Mul", "model_99/tf.nn.convolution_84/convolution/filter", "model_99/tf.math.add_120/Add/y"], "device": "/device:CPU:0", "attr": {"num_host_args": {"i": "0"}, "data_format": {"s": "TkhXQw=="}, "filter_format": {"s": "SFdJTw=="}, "strides": {"list": {"i": ["1", "1", "1", "1"]}}, "num_args": {"i": "1"}, "fused_ops": {"list": {"s": ["Qmlhc0FkZA=="]}}, "TArgs": {"list": {"type": ["DT_FLOAT"]}}, "padding": {"s": "U0FNRQ=="}, "use_cudnn_on_gpu": {"b": true}, "leakyrelu_alpha": {"f": 0.2}, "epsilon": {"f": 0.0}, "T": {"type": "DT_FLOAT"}, "explicit_paddings": {"list": {}}, "dilations": {"list": {"i": ["1", "1", "1", "1"]}}}}, {"name": "model_99/tf.math.sigmoid_78/Sigmoid", "op": "Sigmoid", "input": ["model_99/tf.math.add_120/Add"], "attr": {"T": {"type": "DT_FLOAT"}}}, {"name": "model_99/tf.math.multiply_355/Mul", "op": "Mul", "input": ["model_99/tf.math.add_120/Add", "model_99/tf.math.sigmoid_78/Sigmoid"], "attr": {"T": {"type": "DT_FLOAT"}}}, {"name": "model_99/tf.math.add_122/Add", "op": "AddV2", "input": ["model_99/tf.strided_slice_25/StridedSlice", "model_99/tf.math.multiply_355/Mul"], "attr": {"T": {"type": "DT_FLOAT"}}}, {"name": "model_99/tf.math.add_123/Add", "op": "_FusedConv2D", "input": ["model_99/tf.math.add_122/Add", "model_99/tf.nn.convolution_85/convolution/filter", "model_99/tf.math.add_123/Add/y"], "device": "/device:CPU:0", "attr": {"num_host_args": {"i": "0"}, "data_format": {"s": "TkhXQw=="}, "filter_format": {"s": "SFdJTw=="}, "strides": {"list": {"i": ["1", "1", "1", "1"]}}, "num_args": {"i": "1"}, "fused_ops": {"list": {"s": ["Qmlhc0FkZA=="]}}, "TArgs": {"list": {"type": ["DT_FLOAT"]}}, "padding": {"s": "U0FNRQ=="}, "use_cudnn_on_gpu": {"b": true}, "leakyrelu_alpha": {"f": 0.2}, "epsilon": {"f": 0.0}, "T": {"type": "DT_FLOAT"}, "explicit_paddings": {"list": {}}, "dilations": {"list": {"i": ["1", "1", "1", "1"]}}}}, {"name": "model_99/tf.math.sigmoid_79/Sigmoid", "op": "Sigmoid", "input": ["model_99/tf.math.add_123/Add"], "attr": {"T": {"type": "DT_FLOAT"}}}, {"name": "model_99/tf.math.multiply_361/Mul", "op": "Mul", "input": ["model_99/tf.math.add_123/Add", "model_99/tf.math.sigmoid_79/Sigmoid"], "attr": {"T": {"type": "DT_FLOAT"}}}, {"name": "model_99/tf.math.add_124/Add", "op": "_FusedConv2D", "input": ["model_99/tf.math.multiply_361/Mul", "model_99/tf.nn.convolution_86/convolution/filter", "model_99/tf.math.add_124/Add/y"], "device": "/device:CPU:0", "attr": {"num_host_args": {"i": "0"}, "data_format": {"s": "TkhXQw=="}, "filter_format": {"s": "SFdJTw=="}, "fused_ops": {"list": {"s": ["Qmlhc0FkZA=="]}}, "num_args": {"i": "1"}, "strides": {"list": {"i": ["1", "1", "1", "1"]}}, "TArgs": {"list": {"type": ["DT_FLOAT"]}}, "padding": {"s": "U0FNRQ=="}, "use_cudnn_on_gpu": {"b": true}, "leakyrelu_alpha": {"f": 0.2}, "epsilon": {"f": 0.0}, "T": {"type": "DT_FLOAT"}, "explicit_paddings": {"list": {}}, "dilations": {"list": {"i": ["1", "1", "1", "1"]}}}}, {"name": "model_99/tf.math.sigmoid_80/Sigmoid", "op": "Sigmoid", "input": ["model_99/tf.math.add_124/Add"], "attr": {"T": {"type": "DT_FLOAT"}}}, {"name": "model_99/tf.math.multiply_365/Mul", "op": "Mul", "input": ["model_99/tf.math.add_124/Add", "model_99/tf.math.sigmoid_80/Sigmoid"], "attr": {"T": {"type": "DT_FLOAT"}}}, {"name": "model_99/tf.math.add_126/Add", "op": "AddV2", "input": ["model_99/tf.math.add_122/Add", "model_99/tf.math.multiply_365/Mul"], "attr": {"T": {"type": "DT_FLOAT"}}}, {"name": "model_99/tf.concat_32/concat", "op": "ConcatV2", "input": ["model_99/tf.strided_slice_24/StridedSlice", "model_99/tf.strided_slice_25/StridedSlice", "model_99/tf.math.add_122/Add", "model_99/tf.math.add_126/Add", "model_99/tf.concat_32/concat/axis"], "attr": {"N": {"i": "4"}, "Tidx": {"type": "DT_INT32"}, "T": {"type": "DT_FLOAT"}}}, {"name": "model_99/tf.math.add_127/Add", "op": "_FusedConv2D", "input": ["model_99/tf.concat_32/concat", "model_99/tf.nn.convolution_87/convolution/filter", "model_99/tf.math.add_127/Add/y"], "device": "/device:CPU:0", "attr": {"num_host_args": {"i": "0"}, "data_format": {"s": "TkhXQw=="}, "filter_format": {"s": "SFdJTw=="}, "strides": {"list": {"i": ["1", "1", "1", "1"]}}, "num_args": {"i": "1"}, "fused_ops": {"list": {"s": ["Qmlhc0FkZA=="]}}, "TArgs": {"list": {"type": ["DT_FLOAT"]}}, "padding": {"s": "U0FNRQ=="}, "use_cudnn_on_gpu": {"b": true}, "leakyrelu_alpha": {"f": 0.2}, "epsilon": {"f": 0.0}, "T": {"type": "DT_FLOAT"}, "explicit_paddings": {"list": {}}, "dilations": {"list": {"i": ["1", "1", "1", "1"]}}}}, {"name": "model_99/tf.math.sigmoid_81/Sigmoid", "op": "Sigmoid", "input": ["model_99/tf.math.add_127/Add"], "attr": {"T": {"type": "DT_FLOAT"}}}, {"name": "model_99/tf.math.multiply_371/Mul", "op": "Mul", "input": ["model_99/tf.math.add_127/Add", "model_99/tf.math.sigmoid_81/Sigmoid"], "attr": {"T": {"type": "DT_FLOAT"}}}, {"name": "model_99/tf.compat.v1.pad_11/Pad", "op": "Pad", "input": ["model_99/tf.math.multiply_371/Mul", "model_99/tf.compat.v1.pad_11/Pad/paddings"], "attr": {"Tpaddings": {"type": "DT_INT32"}, "T": {"type": "DT_FLOAT"}}}, {"name": "model_99/tf.math.add_128/Add", "op": "_FusedConv2D", "input": ["model_99/tf.compat.v1.pad_11/Pad", "model_99/tf.nn.convolution_88/convolution/filter", "model_99/tf.math.add_128/Add/y"], "device": "/device:CPU:0", "attr": {"num_host_args": {"i": "0"}, "data_format": {"s": "TkhXQw=="}, "filter_format": {"s": "SFdJTw=="}, "fused_ops": {"list": {"s": ["Qmlhc0FkZA=="]}}, "num_args": {"i": "1"}, "strides": {"list": {"i": ["1", "2", "2", "1"]}}, "TArgs": {"list": {"type": ["DT_FLOAT"]}}, "padding": {"s": "VkFMSUQ="}, "use_cudnn_on_gpu": {"b": true}, "leakyrelu_alpha": {"f": 0.2}, "epsilon": {"f": 0.0}, "T": {"type": "DT_FLOAT"}, "explicit_paddings": {"list": {}}, "dilations": {"list": {"i": ["1", "1", "1", "1"]}}}}, {"name": "model_99/tf.math.sigmoid_82/Sigmoid", "op": "Sigmoid", "input": ["model_99/tf.math.add_128/Add"], "attr": {"T": {"type": "DT_FLOAT"}}}, {"name": "model_99/tf.math.multiply_375/Mul", "op": "Mul", "input": ["model_99/tf.math.add_128/Add", "model_99/tf.math.sigmoid_82/Sigmoid"], "attr": {"T": {"type": "DT_FLOAT"}}}, {"name": "model_99/tf.math.add_129/Add", "op": "_FusedConv2D", "input": ["model_99/tf.math.multiply_375/Mul", "model_99/tf.nn.convolution_89/convolution/filter", "model_99/tf.math.add_129/Add/y"], "device": "/device:CPU:0", "attr": {"num_host_args": {"i": "0"}, "data_format": {"s": "TkhXQw=="}, "filter_format": {"s": "SFdJTw=="}, "fused_ops": {"list": {"s": ["Qmlhc0FkZA=="]}}, "num_args": {"i": "1"}, "strides": {"list": {"i": ["1", "1", "1", "1"]}}, "TArgs": {"list": {"type": ["DT_FLOAT"]}}, "padding": {"s": "U0FNRQ=="}, "use_cudnn_on_gpu": {"b": true}, "leakyrelu_alpha": {"f": 0.2}, "epsilon": {"f": 0.0}, "T": {"type": "DT_FLOAT"}, "explicit_paddings": {"list": {}}, "dilations": {"list": {"i": ["1", "1", "1", "1"]}}}}, {"name": "model_99/tf.math.sigmoid_83/Sigmoid", "op": "Sigmoid", "input": ["model_99/tf.math.add_129/Add"], "attr": {"T": {"type": "DT_FLOAT"}}}, {"name": "model_99/tf.math.multiply_379/Mul", "op": "Mul", "input": ["model_99/tf.math.add_129/Add", "model_99/tf.math.sigmoid_83/Sigmoid"], "attr": {"T": {"type": "DT_FLOAT"}}}, {"name": "model_99/tf.strided_slice_26/StridedSlice", "op": "StridedSlice", "input": ["model_99/tf.math.multiply_379/Mul", "model_99/tf.strided_slice_26/ones_like/tensor", "model_99/tf.strided_slice_26/StridedSlice/end", "model_99/tf.strided_slice_26/ones_like"], "attr": {"shrink_axis_mask": {"i": "0"}, "Index": {"type": "DT_INT64"}, "new_axis_mask": {"i": "0"}, "begin_mask": {"i": "15"}, "end_mask": {"i": "7"}, "T": {"type": "DT_FLOAT"}, "ellipsis_mask": {"i": "0"}}}, {"name": "model_99/tf.strided_slice_27/StridedSlice", "op": "StridedSlice", "input": ["model_99/tf.math.multiply_379/Mul", "model_99/tf.strided_slice_27/ones_like/tensor", "model_99/tf.strided_slice_27/StridedSlice/end", "model_99/tf.strided_slice_27/ones_like"], "attr": {"shrink_axis_mask": {"i": "0"}, "new_axis_mask": {"i": "0"}, "Index": {"type": "DT_INT64"}, "begin_mask": {"i": "7"}, "T": {"type": "DT_FLOAT"}, "end_mask": {"i": "7"}, "ellipsis_mask": {"i": "0"}}}, {"name": "model_99/tf.math.add_130/Add", "op": "_FusedConv2D", "input": ["model_99/tf.strided_slice_27/StridedSlice", "model_99/tf.nn.convolution_90/convolution/filter", "model_99/tf.math.add_130/Add/y"], "device": "/device:CPU:0", "attr": {"num_host_args": {"i": "0"}, "data_format": {"s": "TkhXQw=="}, "filter_format": {"s": "SFdJTw=="}, "fused_ops": {"list": {"s": ["Qmlhc0FkZA=="]}}, "num_args": {"i": "1"}, "strides": {"list": {"i": ["1", "1", "1", "1"]}}, "TArgs": {"list": {"type": ["DT_FLOAT"]}}, "padding": {"s": "U0FNRQ=="}, "use_cudnn_on_gpu": {"b": true}, "leakyrelu_alpha": {"f": 0.2}, "epsilon": {"f": 0.0}, "T": {"type": "DT_FLOAT"}, "explicit_paddings": {"list": {}}, "dilations": {"list": {"i": ["1", "1", "1", "1"]}}}}, {"name": "model_99/tf.math.sigmoid_84/Sigmoid", "op": "Sigmoid", "input": ["model_99/tf.math.add_130/Add"], "attr": {"T": {"type": "DT_FLOAT"}}}, {"name": "model_99/tf.math.multiply_383/Mul", "op": "Mul", "input": ["model_99/tf.math.add_130/Add", "model_99/tf.math.sigmoid_84/Sigmoid"], "attr": {"T": {"type": "DT_FLOAT"}}}, {"name": "model_99/tf.math.add_131/Add", "op": "_FusedConv2D", "input": ["model_99/tf.math.multiply_383/Mul", "model_99/tf.nn.convolution_91/convolution/filter", "model_99/tf.math.add_131/Add/y"], "device": "/device:CPU:0", "attr": {"num_host_args": {"i": "0"}, "data_format": {"s": "TkhXQw=="}, "filter_format": {"s": "SFdJTw=="}, "strides": {"list": {"i": ["1", "1", "1", "1"]}}, "num_args": {"i": "1"}, "fused_ops": {"list": {"s": ["Qmlhc0FkZA=="]}}, "TArgs": {"list": {"type": ["DT_FLOAT"]}}, "padding": {"s": "U0FNRQ=="}, "use_cudnn_on_gpu": {"b": true}, "leakyrelu_alpha": {"f": 0.2}, "epsilon": {"f": 0.0}, "T": {"type": "DT_FLOAT"}, "explicit_paddings": {"list": {}}, "dilations": {"list": {"i": ["1", "1", "1", "1"]}}}}, {"name": "model_99/tf.math.sigmoid_85/Sigmoid", "op": "Sigmoid", "input": ["model_99/tf.math.add_131/Add"], "attr": {"T": {"type": "DT_FLOAT"}}}, {"name": "model_99/tf.math.multiply_387/Mul", "op": "Mul", "input": ["model_99/tf.math.add_131/Add", "model_99/tf.math.sigmoid_85/Sigmoid"], "attr": {"T": {"type": "DT_FLOAT"}}}, {"name": "model_99/tf.math.add_133/Add", "op": "AddV2", "input": ["model_99/tf.strided_slice_27/StridedSlice", "model_99/tf.math.multiply_387/Mul"], "attr": {"T": {"type": "DT_FLOAT"}}}, {"name": "model_99/tf.concat_33/concat", "op": "ConcatV2", "input": ["model_99/tf.strided_slice_26/StridedSlice", "model_99/tf.strided_slice_27/StridedSlice", "model_99/tf.math.add_133/Add", "model_99/tf.concat_33/concat/axis"], "attr": {"N": {"i": "3"}, "Tidx": {"type": "DT_INT32"}, "T": {"type": "DT_FLOAT"}}}, {"name": "model_99/tf.math.add_134/Add", "op": "_FusedConv2D", "input": ["model_99/tf.concat_33/concat", "model_99/tf.nn.convolution_92/convolution/filter", "model_99/tf.math.add_134/Add/y"], "device": "/device:CPU:0", "attr": {"num_host_args": {"i": "0"}, "data_format": {"s": "TkhXQw=="}, "filter_format": {"s": "SFdJTw=="}, "fused_ops": {"list": {"s": ["Qmlhc0FkZA=="]}}, "num_args": {"i": "1"}, "strides": {"list": {"i": ["1", "1", "1", "1"]}}, "TArgs": {"list": {"type": ["DT_FLOAT"]}}, "padding": {"s": "U0FNRQ=="}, "use_cudnn_on_gpu": {"b": true}, "leakyrelu_alpha": {"f": 0.2}, "epsilon": {"f": 0.0}, "T": {"type": "DT_FLOAT"}, "explicit_paddings": {"list": {}}, "dilations": {"list": {"i": ["1", "1", "1", "1"]}}}}, {"name": "model_99/tf.math.sigmoid_86/Sigmoid", "op": "Sigmoid", "input": ["model_99/tf.math.add_134/Add"], "attr": {"T": {"type": "DT_FLOAT"}}}, {"name": "model_99/tf.math.multiply_393/Mul", "op": "Mul", "input": ["model_99/tf.math.add_134/Add", "model_99/tf.math.sigmoid_86/Sigmoid"], "attr": {"T": {"type": "DT_FLOAT"}}}, {"name": "model_99/tf.math.add_135/Add", "op": "_FusedConv2D", "input": ["model_99/tf.math.multiply_393/Mul", "model_99/tf.nn.convolution_93/convolution/filter", "model_99/tf.math.add_135/Add/y"], "device": "/device:CPU:0", "attr": {"num_host_args": {"i": "0"}, "data_format": {"s": "TkhXQw=="}, "filter_format": {"s": "SFdJTw=="}, "strides": {"list": {"i": ["1", "1", "1", "1"]}}, "num_args": {"i": "1"}, "fused_ops": {"list": {"s": ["Qmlhc0FkZA=="]}}, "TArgs": {"list": {"type": ["DT_FLOAT"]}}, "padding": {"s": "U0FNRQ=="}, "use_cudnn_on_gpu": {"b": true}, "leakyrelu_alpha": {"f": 0.2}, "epsilon": {"f": 0.0}, "T": {"type": "DT_FLOAT"}, "explicit_paddings": {"list": {}}, "dilations": {"list": {"i": ["1", "1", "1", "1"]}}}}, {"name": "model_99/tf.math.sigmoid_87/Sigmoid", "op": "Sigmoid", "input": ["model_99/tf.math.add_135/Add"], "attr": {"T": {"type": "DT_FLOAT"}}}, {"name": "model_99/tf.math.multiply_397/Mul", "op": "Mul", "input": ["model_99/tf.math.add_135/Add", "model_99/tf.math.sigmoid_87/Sigmoid"], "attr": {"T": {"type": "DT_FLOAT"}}}, {"name": "model_99/tf.compat.v1.nn.pool_3/max_pool", "op": "MaxPool", "input": ["model_99/tf.math.multiply_397/Mul"], "attr": {"ksize": {"list": {"i": ["1", "5", "5", "1"]}}, "data_format": {"s": "TkhXQw=="}, "T": {"type": "DT_FLOAT"}, "explicit_paddings": {"list": {}}, "padding": {"s": "U0FNRQ=="}, "strides": {"list": {"i": ["1", "1", "1", "1"]}}}}, {"name": "model_99/tf.compat.v1.nn.pool_4/max_pool", "op": "MaxPool", "input": ["model_99/tf.compat.v1.nn.pool_3/max_pool"], "attr": {"ksize": {"list": {"i": ["1", "5", "5", "1"]}}, "data_format": {"s": "TkhXQw=="}, "T": {"type": "DT_FLOAT"}, "explicit_paddings": {"list": {}}, "padding": {"s": "U0FNRQ=="}, "strides": {"list": {"i": ["1", "1", "1", "1"]}}}}, {"name": "model_99/tf.compat.v1.nn.pool_5/max_pool", "op": "MaxPool", "input": ["model_99/tf.compat.v1.nn.pool_4/max_pool"], "attr": {"padding": {"s": "U0FNRQ=="}, "data_format": {"s": "TkhXQw=="}, "T": {"type": "DT_FLOAT"}, "explicit_paddings": {"list": {}}, "ksize": {"list": {"i": ["1", "5", "5", "1"]}}, "strides": {"list": {"i": ["1", "1", "1", "1"]}}}}, {"name": "model_99/tf.concat_34/concat", "op": "ConcatV2", "input": ["model_99/tf.math.multiply_397/Mul", "model_99/tf.compat.v1.nn.pool_3/max_pool", "model_99/tf.compat.v1.nn.pool_4/max_pool", "model_99/tf.compat.v1.nn.pool_5/max_pool", "model_99/tf.concat_34/concat/axis"], "attr": {"N": {"i": "4"}, "T": {"type": "DT_FLOAT"}, "Tidx": {"type": "DT_INT32"}}}, {"name": "model_99/tf.math.add_136/Add", "op": "_FusedConv2D", "input": ["model_99/tf.concat_34/concat", "model_99/tf.nn.convolution_94/convolution/filter", "model_99/tf.math.add_136/Add/y"], "device": "/device:CPU:0", "attr": {"num_host_args": {"i": "0"}, "data_format": {"s": "TkhXQw=="}, "filter_format": {"s": "SFdJTw=="}, "fused_ops": {"list": {"s": ["Qmlhc0FkZA=="]}}, "num_args": {"i": "1"}, "strides": {"list": {"i": ["1", "1", "1", "1"]}}, "TArgs": {"list": {"type": ["DT_FLOAT"]}}, "padding": {"s": "U0FNRQ=="}, "use_cudnn_on_gpu": {"b": true}, "leakyrelu_alpha": {"f": 0.2}, "epsilon": {"f": 0.0}, "T": {"type": "DT_FLOAT"}, "explicit_paddings": {"list": {}}, "dilations": {"list": {"i": ["1", "1", "1", "1"]}}}}, {"name": "model_99/tf.math.sigmoid_88/Sigmoid", "op": "Sigmoid", "input": ["model_99/tf.math.add_136/Add"], "attr": {"T": {"type": "DT_FLOAT"}}}, {"name": "model_99/tf.math.multiply_401/Mul", "op": "Mul", "input": ["model_99/tf.math.add_136/Add", "model_99/tf.math.sigmoid_88/Sigmoid"], "attr": {"T": {"type": "DT_FLOAT"}}}, {"name": "model_99/tf.image.resize_2/resize/ResizeNearestNeighbor", "op": "ResizeNearestNeighbor", "input": ["model_99/tf.math.multiply_401/Mul", "model_99/tf.image.resize_2/resize/size"], "attr": {"T": {"type": "DT_FLOAT"}, "align_corners": {"b": false}, "half_pixel_centers": {"b": true}}}, {"name": "model_99/tf.concat_35/concat", "op": "ConcatV2", "input": ["model_99/tf.image.resize_2/resize/ResizeNearestNeighbor", "model_99/tf.math.multiply_371/Mul", "model_99/tf.concat_35/concat/axis"], "attr": {"N": {"i": "2"}, "Tidx": {"type": "DT_INT32"}, "T": {"type": "DT_FLOAT"}}}, {"name": "model_99/tf.math.add_137/Add", "op": "_FusedConv2D", "input": ["model_99/tf.concat_35/concat", "model_99/tf.nn.convolution_95/convolution/filter", "model_99/tf.math.add_137/Add/y"], "device": "/device:CPU:0", "attr": {"num_host_args": {"i": "0"}, "data_format": {"s": "TkhXQw=="}, "filter_format": {"s": "SFdJTw=="}, "fused_ops": {"list": {"s": ["Qmlhc0FkZA=="]}}, "num_args": {"i": "1"}, "strides": {"list": {"i": ["1", "1", "1", "1"]}}, "TArgs": {"list": {"type": ["DT_FLOAT"]}}, "padding": {"s": "U0FNRQ=="}, "use_cudnn_on_gpu": {"b": true}, "leakyrelu_alpha": {"f": 0.2}, "epsilon": {"f": 0.0}, "T": {"type": "DT_FLOAT"}, "explicit_paddings": {"list": {}}, "dilations": {"list": {"i": ["1", "1", "1", "1"]}}}}, {"name": "model_99/tf.math.sigmoid_89/Sigmoid", "op": "Sigmoid", "input": ["model_99/tf.math.add_137/Add"], "attr": {"T": {"type": "DT_FLOAT"}}}, {"name": "model_99/tf.math.multiply_405/Mul", "op": "Mul", "input": ["model_99/tf.math.add_137/Add", "model_99/tf.math.sigmoid_89/Sigmoid"], "attr": {"T": {"type": "DT_FLOAT"}}}, {"name": "model_99/tf.strided_slice_28/StridedSlice", "op": "StridedSlice", "input": ["model_99/tf.math.multiply_405/Mul", "model_99/tf.strided_slice_28/ones_like/tensor", "model_99/tf.strided_slice_28/StridedSlice/end", "model_99/tf.strided_slice_28/ones_like"], "attr": {"shrink_axis_mask": {"i": "0"}, "Index": {"type": "DT_INT64"}, "new_axis_mask": {"i": "0"}, "begin_mask": {"i": "15"}, "end_mask": {"i": "7"}, "T": {"type": "DT_FLOAT"}, "ellipsis_mask": {"i": "0"}}}, {"name": "model_99/tf.strided_slice_29/StridedSlice", "op": "StridedSlice", "input": ["model_99/tf.math.multiply_405/Mul", "model_99/tf.strided_slice_29/ones_like/tensor", "model_99/tf.strided_slice_29/StridedSlice/end", "model_99/tf.strided_slice_29/ones_like"], "attr": {"shrink_axis_mask": {"i": "0"}, "new_axis_mask": {"i": "0"}, "Index": {"type": "DT_INT64"}, "begin_mask": {"i": "7"}, "end_mask": {"i": "7"}, "T": {"type": "DT_FLOAT"}, "ellipsis_mask": {"i": "0"}}}, {"name": "model_99/tf.math.add_138/Add", "op": "_FusedConv2D", "input": ["model_99/tf.strided_slice_29/StridedSlice", "model_99/tf.nn.convolution_96/convolution/filter", "model_99/tf.math.add_138/Add/y"], "device": "/device:CPU:0", "attr": {"num_host_args": {"i": "0"}, "data_format": {"s": "TkhXQw=="}, "filter_format": {"s": "SFdJTw=="}, "fused_ops": {"list": {"s": ["Qmlhc0FkZA=="]}}, "num_args": {"i": "1"}, "strides": {"list": {"i": ["1", "1", "1", "1"]}}, "TArgs": {"list": {"type": ["DT_FLOAT"]}}, "padding": {"s": "U0FNRQ=="}, "use_cudnn_on_gpu": {"b": true}, "leakyrelu_alpha": {"f": 0.2}, "epsilon": {"f": 0.0}, "T": {"type": "DT_FLOAT"}, "explicit_paddings": {"list": {}}, "dilations": {"list": {"i": ["1", "1", "1", "1"]}}}}, {"name": "model_99/tf.math.sigmoid_90/Sigmoid", "op": "Sigmoid", "input": ["model_99/tf.math.add_138/Add"], "attr": {"T": {"type": "DT_FLOAT"}}}, {"name": "model_99/tf.math.multiply_409/Mul", "op": "Mul", "input": ["model_99/tf.math.add_138/Add", "model_99/tf.math.sigmoid_90/Sigmoid"], "attr": {"T": {"type": "DT_FLOAT"}}}, {"name": "model_99/tf.math.add_139/Add", "op": "_FusedConv2D", "input": ["model_99/tf.math.multiply_409/Mul", "model_99/tf.nn.convolution_97/convolution/filter", "model_99/tf.math.add_139/Add/y"], "device": "/device:CPU:0", "attr": {"num_host_args": {"i": "0"}, "data_format": {"s": "TkhXQw=="}, "filter_format": {"s": "SFdJTw=="}, "fused_ops": {"list": {"s": ["Qmlhc0FkZA=="]}}, "num_args": {"i": "1"}, "strides": {"list": {"i": ["1", "1", "1", "1"]}}, "TArgs": {"list": {"type": ["DT_FLOAT"]}}, "padding": {"s": "U0FNRQ=="}, "use_cudnn_on_gpu": {"b": true}, "leakyrelu_alpha": {"f": 0.2}, "epsilon": {"f": 0.0}, "T": {"type": "DT_FLOAT"}, "explicit_paddings": {"list": {}}, "dilations": {"list": {"i": ["1", "1", "1", "1"]}}}}, {"name": "model_99/tf.math.sigmoid_91/Sigmoid", "op": "Sigmoid", "input": ["model_99/tf.math.add_139/Add"], "attr": {"T": {"type": "DT_FLOAT"}}}, {"name": "model_99/tf.math.multiply_413/Mul", "op": "Mul", "input": ["model_99/tf.math.add_139/Add", "model_99/tf.math.sigmoid_91/Sigmoid"], "attr": {"T": {"type": "DT_FLOAT"}}}, {"name": "model_99/tf.concat_36/concat", "op": "ConcatV2", "input": ["model_99/tf.strided_slice_28/StridedSlice", "model_99/tf.strided_slice_29/StridedSlice", "model_99/tf.math.multiply_413/Mul", "model_99/tf.concat_36/concat/axis"], "attr": {"N": {"i": "3"}, "Tidx": {"type": "DT_INT32"}, "T": {"type": "DT_FLOAT"}}}, {"name": "model_99/tf.math.add_140/Add", "op": "_FusedConv2D", "input": ["model_99/tf.concat_36/concat", "model_99/tf.nn.convolution_98/convolution/filter", "model_99/tf.math.add_140/Add/y"], "device": "/device:CPU:0", "attr": {"num_host_args": {"i": "0"}, "data_format": {"s": "TkhXQw=="}, "filter_format": {"s": "SFdJTw=="}, "fused_ops": {"list": {"s": ["Qmlhc0FkZA=="]}}, "num_args": {"i": "1"}, "strides": {"list": {"i": ["1", "1", "1", "1"]}}, "TArgs": {"list": {"type": ["DT_FLOAT"]}}, "padding": {"s": "U0FNRQ=="}, "use_cudnn_on_gpu": {"b": true}, "leakyrelu_alpha": {"f": 0.2}, "epsilon": {"f": 0.0}, "T": {"type": "DT_FLOAT"}, "explicit_paddings": {"list": {}}, "dilations": {"list": {"i": ["1", "1", "1", "1"]}}}}, {"name": "model_99/tf.math.sigmoid_92/Sigmoid", "op": "Sigmoid", "input": ["model_99/tf.math.add_140/Add"], "attr": {"T": {"type": "DT_FLOAT"}}}, {"name": "model_99/tf.math.multiply_417/Mul", "op": "Mul", "input": ["model_99/tf.math.add_140/Add", "model_99/tf.math.sigmoid_92/Sigmoid"], "attr": {"T": {"type": "DT_FLOAT"}}}, {"name": "model_99/tf.image.resize_3/resize/ResizeNearestNeighbor", "op": "ResizeNearestNeighbor", "input": ["model_99/tf.math.multiply_417/Mul", "model_99/tf.image.resize_3/resize/size"], "attr": {"T": {"type": "DT_FLOAT"}, "align_corners": {"b": false}, "half_pixel_centers": {"b": true}}}, {"name": "model_99/tf.concat_37/concat", "op": "ConcatV2", "input": ["model_99/tf.image.resize_3/resize/ResizeNearestNeighbor", "model_99/tf.math.multiply_339/Mul", "model_99/tf.concat_37/concat/axis"], "attr": {"N": {"i": "2"}, "Tidx": {"type": "DT_INT32"}, "T": {"type": "DT_FLOAT"}}}, {"name": "model_99/tf.math.add_141/Add", "op": "_FusedConv2D", "input": ["model_99/tf.concat_37/concat", "model_99/tf.nn.convolution_99/convolution/filter", "model_99/tf.math.add_141/Add/y"], "device": "/device:CPU:0", "attr": {"num_host_args": {"i": "0"}, "data_format": {"s": "TkhXQw=="}, "filter_format": {"s": "SFdJTw=="}, "strides": {"list": {"i": ["1", "1", "1", "1"]}}, "num_args": {"i": "1"}, "fused_ops": {"list": {"s": ["Qmlhc0FkZA=="]}}, "TArgs": {"list": {"type": ["DT_FLOAT"]}}, "padding": {"s": "U0FNRQ=="}, "use_cudnn_on_gpu": {"b": true}, "leakyrelu_alpha": {"f": 0.2}, "epsilon": {"f": 0.0}, "T": {"type": "DT_FLOAT"}, "explicit_paddings": {"list": {}}, "dilations": {"list": {"i": ["1", "1", "1", "1"]}}}}, {"name": "model_99/tf.math.sigmoid_93/Sigmoid", "op": "Sigmoid", "input": ["model_99/tf.math.add_141/Add"], "attr": {"T": {"type": "DT_FLOAT"}}}, {"name": "model_99/tf.math.multiply_421/Mul", "op": "Mul", "input": ["model_99/tf.math.add_141/Add", "model_99/tf.math.sigmoid_93/Sigmoid"], "attr": {"T": {"type": "DT_FLOAT"}}}, {"name": "model_99/tf.strided_slice_30/StridedSlice", "op": "StridedSlice", "input": ["model_99/tf.math.multiply_421/Mul", "model_99/tf.strided_slice_30/ones_like/tensor", "model_99/tf.strided_slice_30/StridedSlice/end", "model_99/tf.strided_slice_30/ones_like"], "attr": {"shrink_axis_mask": {"i": "0"}, "new_axis_mask": {"i": "0"}, "Index": {"type": "DT_INT64"}, "begin_mask": {"i": "15"}, "T": {"type": "DT_FLOAT"}, "end_mask": {"i": "7"}, "ellipsis_mask": {"i": "0"}}}, {"name": "model_99/tf.strided_slice_31/StridedSlice", "op": "StridedSlice", "input": ["model_99/tf.math.multiply_421/Mul", "model_99/tf.strided_slice_31/ones_like/tensor", "model_99/tf.strided_slice_31/StridedSlice/end", "model_99/tf.strided_slice_31/ones_like"], "attr": {"shrink_axis_mask": {"i": "0"}, "new_axis_mask": {"i": "0"}, "Index": {"type": "DT_INT64"}, "begin_mask": {"i": "7"}, "T": {"type": "DT_FLOAT"}, "end_mask": {"i": "7"}, "ellipsis_mask": {"i": "0"}}}, {"name": "model_99/tf.math.add_142/Add", "op": "_FusedConv2D", "input": ["model_99/tf.strided_slice_31/StridedSlice", "model_99/tf.nn.convolution_100/convolution/filter", "model_99/tf.math.add_142/Add/y"], "device": "/device:CPU:0", "attr": {"num_host_args": {"i": "0"}, "data_format": {"s": "TkhXQw=="}, "filter_format": {"s": "SFdJTw=="}, "fused_ops": {"list": {"s": ["Qmlhc0FkZA=="]}}, "num_args": {"i": "1"}, "strides": {"list": {"i": ["1", "1", "1", "1"]}}, "TArgs": {"list": {"type": ["DT_FLOAT"]}}, "padding": {"s": "U0FNRQ=="}, "use_cudnn_on_gpu": {"b": true}, "leakyrelu_alpha": {"f": 0.2}, "epsilon": {"f": 0.0}, "T": {"type": "DT_FLOAT"}, "explicit_paddings": {"list": {}}, "dilations": {"list": {"i": ["1", "1", "1", "1"]}}}}, {"name": "model_99/tf.math.sigmoid_94/Sigmoid", "op": "Sigmoid", "input": ["model_99/tf.math.add_142/Add"], "attr": {"T": {"type": "DT_FLOAT"}}}, {"name": "model_99/tf.math.multiply_425/Mul", "op": "Mul", "input": ["model_99/tf.math.add_142/Add", "model_99/tf.math.sigmoid_94/Sigmoid"], "attr": {"T": {"type": "DT_FLOAT"}}}, {"name": "model_99/tf.math.add_143/Add", "op": "_FusedConv2D", "input": ["model_99/tf.math.multiply_425/Mul", "model_99/tf.nn.convolution_101/convolution/filter", "model_99/tf.math.add_143/Add/y"], "device": "/device:CPU:0", "attr": {"num_host_args": {"i": "0"}, "data_format": {"s": "TkhXQw=="}, "filter_format": {"s": "SFdJTw=="}, "strides": {"list": {"i": ["1", "1", "1", "1"]}}, "num_args": {"i": "1"}, "fused_ops": {"list": {"s": ["Qmlhc0FkZA=="]}}, "TArgs": {"list": {"type": ["DT_FLOAT"]}}, "padding": {"s": "U0FNRQ=="}, "use_cudnn_on_gpu": {"b": true}, "leakyrelu_alpha": {"f": 0.2}, "epsilon": {"f": 0.0}, "T": {"type": "DT_FLOAT"}, "explicit_paddings": {"list": {}}, "dilations": {"list": {"i": ["1", "1", "1", "1"]}}}}, {"name": "model_99/tf.math.sigmoid_95/Sigmoid", "op": "Sigmoid", "input": ["model_99/tf.math.add_143/Add"], "attr": {"T": {"type": "DT_FLOAT"}}}, {"name": "model_99/tf.math.multiply_429/Mul", "op": "Mul", "input": ["model_99/tf.math.add_143/Add", "model_99/tf.math.sigmoid_95/Sigmoid"], "attr": {"T": {"type": "DT_FLOAT"}}}, {"name": "model_99/tf.concat_38/concat", "op": "ConcatV2", "input": ["model_99/tf.strided_slice_30/StridedSlice", "model_99/tf.strided_slice_31/StridedSlice", "model_99/tf.math.multiply_429/Mul", "model_99/tf.concat_38/concat/axis"], "attr": {"N": {"i": "3"}, "T": {"type": "DT_FLOAT"}, "Tidx": {"type": "DT_INT32"}}}, {"name": "model_99/tf.math.add_144/Add", "op": "_FusedConv2D", "input": ["model_99/tf.concat_38/concat", "model_99/tf.nn.convolution_102/convolution/filter", "model_99/tf.math.add_144/Add/y"], "device": "/device:CPU:0", "attr": {"num_host_args": {"i": "0"}, "data_format": {"s": "TkhXQw=="}, "filter_format": {"s": "SFdJTw=="}, "fused_ops": {"list": {"s": ["Qmlhc0FkZA=="]}}, "num_args": {"i": "1"}, "strides": {"list": {"i": ["1", "1", "1", "1"]}}, "TArgs": {"list": {"type": ["DT_FLOAT"]}}, "padding": {"s": "U0FNRQ=="}, "use_cudnn_on_gpu": {"b": true}, "leakyrelu_alpha": {"f": 0.2}, "epsilon": {"f": 0.0}, "T": {"type": "DT_FLOAT"}, "explicit_paddings": {"list": {}}, "dilations": {"list": {"i": ["1", "1", "1", "1"]}}}}, {"name": "model_99/tf.math.sigmoid_96/Sigmoid", "op": "Sigmoid", "input": ["model_99/tf.math.add_144/Add"], "attr": {"T": {"type": "DT_FLOAT"}}}, {"name": "model_99/tf.math.multiply_433/Mul", "op": "Mul", "input": ["model_99/tf.math.add_144/Add", "model_99/tf.math.sigmoid_96/Sigmoid"], "attr": {"T": {"type": "DT_FLOAT"}}}, {"name": "model_99/tf.math.add_146/Add", "op": "_FusedConv2D", "input": ["model_99/tf.math.multiply_433/Mul", "model_99/tf.nn.convolution_104/convolution/filter", "model_99/tf.math.add_146/Add/y"], "device": "/device:CPU:0", "attr": {"num_host_args": {"i": "0"}, "data_format": {"s": "TkhXQw=="}, "filter_format": {"s": "SFdJTw=="}, "strides": {"list": {"i": ["1", "1", "1", "1"]}}, "num_args": {"i": "1"}, "fused_ops": {"list": {"s": ["Qmlhc0FkZA=="]}}, "TArgs": {"list": {"type": ["DT_FLOAT"]}}, "padding": {"s": "U0FNRQ=="}, "use_cudnn_on_gpu": {"b": true}, "leakyrelu_alpha": {"f": 0.2}, "epsilon": {"f": 0.0}, "T": {"type": "DT_FLOAT"}, "explicit_paddings": {"list": {}}, "dilations": {"list": {"i": ["1", "1", "1", "1"]}}}}, {"name": "model_99/tf.math.add_147/Add", "op": "_FusedConv2D", "input": ["model_99/tf.math.multiply_433/Mul", "model_99/tf.nn.convolution_105/convolution/filter", "model_99/tf.math.add_147/Add/y"], "device": "/device:CPU:0", "attr": {"num_host_args": {"i": "0"}, "data_format": {"s": "TkhXQw=="}, "filter_format": {"s": "SFdJTw=="}, "strides": {"list": {"i": ["1", "1", "1", "1"]}}, "num_args": {"i": "1"}, "fused_ops": {"list": {"s": ["Qmlhc0FkZA=="]}}, "TArgs": {"list": {"type": ["DT_FLOAT"]}}, "padding": {"s": "U0FNRQ=="}, "use_cudnn_on_gpu": {"b": true}, "leakyrelu_alpha": {"f": 0.2}, "epsilon": {"f": 0.0}, "T": {"type": "DT_FLOAT"}, "explicit_paddings": {"list": {}}, "dilations": {"list": {"i": ["1", "1", "1", "1"]}}}}, {"name": "model_99/tf.compat.v1.pad_12/Pad", "op": "Pad", "input": ["model_99/tf.math.multiply_433/Mul", "model_99/tf.compat.v1.pad_12/Pad/paddings"], "attr": {"Tpaddings": {"type": "DT_INT32"}, "T": {"type": "DT_FLOAT"}}}, {"name": "model_99/tf.math.sigmoid_98/Sigmoid", "op": "Sigmoid", "input": ["model_99/tf.math.add_146/Add"], "attr": {"T": {"type": "DT_FLOAT"}}}, {"name": "model_99/tf.math.sigmoid_99/Sigmoid", "op": "Sigmoid", "input": ["model_99/tf.math.add_147/Add"], "attr": {"T": {"type": "DT_FLOAT"}}}, {"name": "model_99/tf.math.add_145/Add", "op": "_FusedConv2D", "input": ["model_99/tf.compat.v1.pad_12/Pad", "model_99/tf.nn.convolution_103/convolution/filter", "model_99/tf.math.add_145/Add/y"], "device": "/device:CPU:0", "attr": {"num_host_args": {"i": "0"}, "data_format": {"s": "TkhXQw=="}, "filter_format": {"s": "SFdJTw=="}, "strides": {"list": {"i": ["1", "2", "2", "1"]}}, "num_args": {"i": "1"}, "fused_ops": {"list": {"s": ["Qmlhc0FkZA=="]}}, "TArgs": {"list": {"type": ["DT_FLOAT"]}}, "padding": {"s": "VkFMSUQ="}, "use_cudnn_on_gpu": {"b": true}, "leakyrelu_alpha": {"f": 0.2}, "epsilon": {"f": 0.0}, "T": {"type": "DT_FLOAT"}, "explicit_paddings": {"list": {}}, "dilations": {"list": {"i": ["1", "1", "1", "1"]}}}}, {"name": "model_99/tf.math.multiply_441/Mul", "op": "Mul", "input": ["model_99/tf.math.add_146/Add", "model_99/tf.math.sigmoid_98/Sigmoid"], "attr": {"T": {"type": "DT_FLOAT"}}}, {"name": "model_99/tf.math.multiply_445/Mul", "op": "Mul", "input": ["model_99/tf.math.add_147/Add", "model_99/tf.math.sigmoid_99/Sigmoid"], "attr": {"T": {"type": "DT_FLOAT"}}}, {"name": "model_99/tf.math.sigmoid_97/Sigmoid", "op": "Sigmoid", "input": ["model_99/tf.math.add_145/Add"], "attr": {"T": {"type": "DT_FLOAT"}}}, {"name": "model_99/tf.math.add_148/Add", "op": "_FusedConv2D", "input": ["model_99/tf.math.multiply_441/Mul", "model_99/tf.nn.convolution_106/convolution/filter", "model_99/tf.math.add_148/Add/y"], "device": "/device:CPU:0", "attr": {"num_host_args": {"i": "0"}, "data_format": {"s": "TkhXQw=="}, "filter_format": {"s": "SFdJTw=="}, "fused_ops": {"list": {"s": ["Qmlhc0FkZA=="]}}, "num_args": {"i": "1"}, "strides": {"list": {"i": ["1", "1", "1", "1"]}}, "TArgs": {"list": {"type": ["DT_FLOAT"]}}, "padding": {"s": "U0FNRQ=="}, "use_cudnn_on_gpu": {"b": true}, "leakyrelu_alpha": {"f": 0.2}, "epsilon": {"f": 0.0}, "T": {"type": "DT_FLOAT"}, "explicit_paddings": {"list": {}}, "dilations": {"list": {"i": ["1", "1", "1", "1"]}}}}, {"name": "model_99/tf.math.add_149/Add", "op": "_FusedConv2D", "input": ["model_99/tf.math.multiply_445/Mul", "model_99/tf.nn.convolution_107/convolution/filter", "model_99/tf.math.add_149/Add/y"], "device": "/device:CPU:0", "attr": {"num_host_args": {"i": "0"}, "data_format": {"s": "TkhXQw=="}, "filter_format": {"s": "SFdJTw=="}, "strides": {"list": {"i": ["1", "1", "1", "1"]}}, "num_args": {"i": "1"}, "fused_ops": {"list": {"s": ["Qmlhc0FkZA=="]}}, "TArgs": {"list": {"type": ["DT_FLOAT"]}}, "padding": {"s": "U0FNRQ=="}, "use_cudnn_on_gpu": {"b": true}, "leakyrelu_alpha": {"f": 0.2}, "epsilon": {"f": 0.0}, "T": {"type": "DT_FLOAT"}, "explicit_paddings": {"list": {}}, "dilations": {"list": {"i": ["1", "1", "1", "1"]}}}}, {"name": "model_99/tf.math.multiply_437/Mul", "op": "Mul", "input": ["model_99/tf.math.add_145/Add", "model_99/tf.math.sigmoid_97/Sigmoid"], "attr": {"T": {"type": "DT_FLOAT"}}}, {"name": "model_99/tf.math.sigmoid_100/Sigmoid", "op": "Sigmoid", "input": ["model_99/tf.math.add_148/Add"], "attr": {"T": {"type": "DT_FLOAT"}}}, {"name": "model_99/tf.math.sigmoid_101/Sigmoid", "op": "Sigmoid", "input": ["model_99/tf.math.add_149/Add"], "attr": {"T": {"type": "DT_FLOAT"}}}, {"name": "model_99/tf.concat_39/concat", "op": "ConcatV2", "input": ["model_99/tf.math.multiply_437/Mul", "model_99/tf.math.multiply_417/Mul", "model_99/tf.concat_39/concat/axis"], "attr": {"N": {"i": "2"}, "Tidx": {"type": "DT_INT32"}, "T": {"type": "DT_FLOAT"}}}, {"name": "model_99/tf.math.multiply_449/Mul", "op": "Mul", "input": ["model_99/tf.math.add_148/Add", "model_99/tf.math.sigmoid_100/Sigmoid"], "attr": {"T": {"type": "DT_FLOAT"}}}, {"name": "model_99/tf.math.multiply_453/Mul", "op": "Mul", "input": ["model_99/tf.math.add_149/Add", "model_99/tf.math.sigmoid_101/Sigmoid"], "attr": {"T": {"type": "DT_FLOAT"}}}, {"name": "model_99/tf.math.add_150/Add", "op": "_FusedConv2D", "input": ["model_99/tf.concat_39/concat", "model_99/tf.nn.convolution_108/convolution/filter", "model_99/tf.math.add_150/Add/y"], "device": "/device:CPU:0", "attr": {"num_host_args": {"i": "0"}, "data_format": {"s": "TkhXQw=="}, "filter_format": {"s": "SFdJTw=="}, "fused_ops": {"list": {"s": ["Qmlhc0FkZA=="]}}, "num_args": {"i": "1"}, "strides": {"list": {"i": ["1", "1", "1", "1"]}}, "TArgs": {"list": {"type": ["DT_FLOAT"]}}, "padding": {"s": "U0FNRQ=="}, "use_cudnn_on_gpu": {"b": true}, "leakyrelu_alpha": {"f": 0.2}, "epsilon": {"f": 0.0}, "T": {"type": "DT_FLOAT"}, "explicit_paddings": {"list": {}}, "dilations": {"list": {"i": ["1", "1", "1", "1"]}}}}, {"name": "model_99/tf.math.add_151/Add", "op": "_FusedConv2D", "input": ["model_99/tf.math.multiply_449/Mul", "model_99/tf.nn.convolution_109/convolution/filter", "model_99/tf.math.add_151/Add/y"], "device": "/device:CPU:0", "attr": {"num_host_args": {"i": "0"}, "data_format": {"s": "TkhXQw=="}, "filter_format": {"s": "SFdJTw=="}, "strides": {"list": {"i": ["1", "1", "1", "1"]}}, "num_args": {"i": "1"}, "fused_ops": {"list": {"s": ["Qmlhc0FkZA=="]}}, "TArgs": {"list": {"type": ["DT_FLOAT"]}}, "padding": {"s": "U0FNRQ=="}, "use_cudnn_on_gpu": {"b": true}, "leakyrelu_alpha": {"f": 0.2}, "epsilon": {"f": 0.0}, "T": {"type": "DT_FLOAT"}, "explicit_paddings": {"list": {}}, "dilations": {"list": {"i": ["1", "1", "1", "1"]}}}}, {"name": "model_99/tf.math.add_152/Add", "op": "_FusedConv2D", "input": ["model_99/tf.math.multiply_453/Mul", "model_99/tf.nn.convolution_110/convolution/filter", "model_99/tf.math.add_152/Add/y"], "device": "/device:CPU:0", "attr": {"num_host_args": {"i": "0"}, "data_format": {"s": "TkhXQw=="}, "filter_format": {"s": "SFdJTw=="}, "strides": {"list": {"i": ["1", "1", "1", "1"]}}, "num_args": {"i": "1"}, "fused_ops": {"list": {"s": ["Qmlhc0FkZA=="]}}, "TArgs": {"list": {"type": ["DT_FLOAT"]}}, "padding": {"s": "U0FNRQ=="}, "use_cudnn_on_gpu": {"b": true}, "leakyrelu_alpha": {"f": 0.2}, "epsilon": {"f": 0.0}, "T": {"type": "DT_FLOAT"}, "explicit_paddings": {"list": {}}, "dilations": {"list": {"i": ["1", "1", "1", "1"]}}}}, {"name": "model_99/tf.math.sigmoid_102/Sigmoid", "op": "Sigmoid", "input": ["model_99/tf.math.add_150/Add"], "attr": {"T": {"type": "DT_FLOAT"}}}, {"name": "model_99/tf.concat_40/concat", "op": "ConcatV2", "input": ["model_99/tf.math.add_151/Add", "model_99/tf.math.add_152/Add", "model_99/tf.concat_40/concat/axis"], "attr": {"N": {"i": "2"}, "Tidx": {"type": "DT_INT32"}, "T": {"type": "DT_FLOAT"}}}, {"name": "model_99/tf.math.multiply_457/Mul", "op": "Mul", "input": ["model_99/tf.math.add_150/Add", "model_99/tf.math.sigmoid_102/Sigmoid"], "attr": {"T": {"type": "DT_FLOAT"}}}, {"name": "model_99/tf.compat.v1.transpose_355/transpose", "op": "Transpose", "input": ["model_99/tf.concat_40/concat", "model_99/tf.compat.v1.transpose_355/transpose/perm"], "attr": {"Tperm": {"type": "DT_INT32"}, "T": {"type": "DT_FLOAT"}}}, {"name": "model_99/tf.strided_slice_32/StridedSlice", "op": "StridedSlice", "input": ["model_99/tf.math.multiply_457/Mul", "model_99/tf.strided_slice_32/ones_like/tensor", "model_99/tf.strided_slice_32/StridedSlice/end", "model_99/tf.strided_slice_32/ones_like"], "attr": {"shrink_axis_mask": {"i": "0"}, "new_axis_mask": {"i": "0"}, "Index": {"type": "DT_INT64"}, "begin_mask": {"i": "15"}, "T": {"type": "DT_FLOAT"}, "end_mask": {"i": "7"}, "ellipsis_mask": {"i": "0"}}}, {"name": "model_99/tf.strided_slice_33/StridedSlice", "op": "StridedSlice", "input": ["model_99/tf.math.multiply_457/Mul", "model_99/tf.strided_slice_33/ones_like/tensor", "model_99/tf.strided_slice_33/StridedSlice/end", "model_99/tf.strided_slice_33/ones_like"], "attr": {"shrink_axis_mask": {"i": "0"}, "new_axis_mask": {"i": "0"}, "Index": {"type": "DT_INT64"}, "begin_mask": {"i": "7"}, "T": {"type": "DT_FLOAT"}, "end_mask": {"i": "7"}, "ellipsis_mask": {"i": "0"}}}, {"name": "model_99/tf.reshape_57/Reshape", "op": "Reshape", "input": ["model_99/tf.compat.v1.transpose_355/transpose", "model_99/tf.reshape_57/Reshape/shape"], "attr": {"T": {"type": "DT_FLOAT"}, "Tshape": {"type": "DT_INT32"}}}, {"name": "model_99/tf.math.add_153/Add", "op": "_FusedConv2D", "input": ["model_99/tf.strided_slice_33/StridedSlice", "model_99/tf.nn.convolution_111/convolution/filter", "model_99/tf.math.add_153/Add/y"], "device": "/device:CPU:0", "attr": {"num_host_args": {"i": "0"}, "data_format": {"s": "TkhXQw=="}, "filter_format": {"s": "SFdJTw=="}, "fused_ops": {"list": {"s": ["Qmlhc0FkZA=="]}}, "num_args": {"i": "1"}, "strides": {"list": {"i": ["1", "1", "1", "1"]}}, "TArgs": {"list": {"type": ["DT_FLOAT"]}}, "padding": {"s": "U0FNRQ=="}, "use_cudnn_on_gpu": {"b": true}, "leakyrelu_alpha": {"f": 0.2}, "epsilon": {"f": 0.0}, "T": {"type": "DT_FLOAT"}, "explicit_paddings": {"list": {}}, "dilations": {"list": {"i": ["1", "1", "1", "1"]}}}}, {"name": "model_99/tf.math.sigmoid_103/Sigmoid", "op": "Sigmoid", "input": ["model_99/tf.math.add_153/Add"], "attr": {"T": {"type": "DT_FLOAT"}}}, {"name": "model_99/tf.math.multiply_461/Mul", "op": "Mul", "input": ["model_99/tf.math.add_153/Add", "model_99/tf.math.sigmoid_103/Sigmoid"], "attr": {"T": {"type": "DT_FLOAT"}}}, {"name": "model_99/tf.math.add_154/Add", "op": "_FusedConv2D", "input": ["model_99/tf.math.multiply_461/Mul", "model_99/tf.nn.convolution_112/convolution/filter", "model_99/tf.math.add_154/Add/y"], "device": "/device:CPU:0", "attr": {"num_host_args": {"i": "0"}, "data_format": {"s": "TkhXQw=="}, "filter_format": {"s": "SFdJTw=="}, "fused_ops": {"list": {"s": ["Qmlhc0FkZA=="]}}, "num_args": {"i": "1"}, "strides": {"list": {"i": ["1", "1", "1", "1"]}}, "TArgs": {"list": {"type": ["DT_FLOAT"]}}, "padding": {"s": "U0FNRQ=="}, "use_cudnn_on_gpu": {"b": true}, "leakyrelu_alpha": {"f": 0.2}, "epsilon": {"f": 0.0}, "T": {"type": "DT_FLOAT"}, "explicit_paddings": {"list": {}}, "dilations": {"list": {"i": ["1", "1", "1", "1"]}}}}, {"name": "model_99/tf.math.sigmoid_104/Sigmoid", "op": "Sigmoid", "input": ["model_99/tf.math.add_154/Add"], "attr": {"T": {"type": "DT_FLOAT"}}}, {"name": "model_99/tf.math.multiply_465/Mul", "op": "Mul", "input": ["model_99/tf.math.add_154/Add", "model_99/tf.math.sigmoid_104/Sigmoid"], "attr": {"T": {"type": "DT_FLOAT"}}}, {"name": "model_99/tf.concat_41/concat", "op": "ConcatV2", "input": ["model_99/tf.strided_slice_32/StridedSlice", "model_99/tf.strided_slice_33/StridedSlice", "model_99/tf.math.multiply_465/Mul", "model_99/tf.concat_41/concat/axis"], "attr": {"N": {"i": "3"}, "T": {"type": "DT_FLOAT"}, "Tidx": {"type": "DT_INT32"}}}, {"name": "model_99/tf.math.add_155/Add", "op": "_FusedConv2D", "input": ["model_99/tf.concat_41/concat", "model_99/tf.nn.convolution_113/convolution/filter", "model_99/tf.math.add_155/Add/y"], "device": "/device:CPU:0", "attr": {"num_host_args": {"i": "0"}, "data_format": {"s": "TkhXQw=="}, "filter_format": {"s": "SFdJTw=="}, "fused_ops": {"list": {"s": ["Qmlhc0FkZA=="]}}, "num_args": {"i": "1"}, "strides": {"list": {"i": ["1", "1", "1", "1"]}}, "TArgs": {"list": {"type": ["DT_FLOAT"]}}, "padding": {"s": "U0FNRQ=="}, "use_cudnn_on_gpu": {"b": true}, "leakyrelu_alpha": {"f": 0.2}, "epsilon": {"f": 0.0}, "T": {"type": "DT_FLOAT"}, "explicit_paddings": {"list": {}}, "dilations": {"list": {"i": ["1", "1", "1", "1"]}}}}, {"name": "model_99/tf.math.sigmoid_105/Sigmoid", "op": "Sigmoid", "input": ["model_99/tf.math.add_155/Add"], "attr": {"T": {"type": "DT_FLOAT"}}}, {"name": "model_99/tf.math.multiply_469/Mul", "op": "Mul", "input": ["model_99/tf.math.add_155/Add", "model_99/tf.math.sigmoid_105/Sigmoid"], "attr": {"T": {"type": "DT_FLOAT"}}}, {"name": "model_99/tf.math.add_157/Add", "op": "_FusedConv2D", "input": ["model_99/tf.math.multiply_469/Mul", "model_99/tf.nn.convolution_115/convolution/filter", "model_99/tf.math.add_157/Add/y"], "device": "/device:CPU:0", "attr": {"num_host_args": {"i": "0"}, "data_format": {"s": "TkhXQw=="}, "filter_format": {"s": "SFdJTw=="}, "strides": {"list": {"i": ["1", "1", "1", "1"]}}, "num_args": {"i": "1"}, "fused_ops": {"list": {"s": ["Qmlhc0FkZA=="]}}, "TArgs": {"list": {"type": ["DT_FLOAT"]}}, "padding": {"s": "U0FNRQ=="}, "use_cudnn_on_gpu": {"b": true}, "leakyrelu_alpha": {"f": 0.2}, "epsilon": {"f": 0.0}, "T": {"type": "DT_FLOAT"}, "explicit_paddings": {"list": {}}, "dilations": {"list": {"i": ["1", "1", "1", "1"]}}}}, {"name": "model_99/tf.math.add_158/Add", "op": "_FusedConv2D", "input": ["model_99/tf.math.multiply_469/Mul", "model_99/tf.nn.convolution_116/convolution/filter", "model_99/tf.math.add_158/Add/y"], "device": "/device:CPU:0", "attr": {"num_host_args": {"i": "0"}, "data_format": {"s": "TkhXQw=="}, "filter_format": {"s": "SFdJTw=="}, "strides": {"list": {"i": ["1", "1", "1", "1"]}}, "num_args": {"i": "1"}, "fused_ops": {"list": {"s": ["Qmlhc0FkZA=="]}}, "TArgs": {"list": {"type": ["DT_FLOAT"]}}, "padding": {"s": "U0FNRQ=="}, "use_cudnn_on_gpu": {"b": true}, "leakyrelu_alpha": {"f": 0.2}, "epsilon": {"f": 0.0}, "T": {"type": "DT_FLOAT"}, "explicit_paddings": {"list": {}}, "dilations": {"list": {"i": ["1", "1", "1", "1"]}}}}, {"name": "model_99/tf.compat.v1.pad_13/Pad", "op": "Pad", "input": ["model_99/tf.math.multiply_469/Mul", "model_99/tf.compat.v1.pad_13/Pad/paddings"], "attr": {"Tpaddings": {"type": "DT_INT32"}, "T": {"type": "DT_FLOAT"}}}, {"name": "model_99/tf.math.sigmoid_107/Sigmoid", "op": "Sigmoid", "input": ["model_99/tf.math.add_157/Add"], "attr": {"T": {"type": "DT_FLOAT"}}}, {"name": "model_99/tf.math.sigmoid_108/Sigmoid", "op": "Sigmoid", "input": ["model_99/tf.math.add_158/Add"], "attr": {"T": {"type": "DT_FLOAT"}}}, {"name": "model_99/tf.math.add_156/Add", "op": "_FusedConv2D", "input": ["model_99/tf.compat.v1.pad_13/Pad", "model_99/tf.nn.convolution_114/convolution/filter", "model_99/tf.math.add_156/Add/y"], "device": "/device:CPU:0", "attr": {"num_host_args": {"i": "0"}, "data_format": {"s": "TkhXQw=="}, "filter_format": {"s": "SFdJTw=="}, "fused_ops": {"list": {"s": ["Qmlhc0FkZA=="]}}, "num_args": {"i": "1"}, "strides": {"list": {"i": ["1", "2", "2", "1"]}}, "TArgs": {"list": {"type": ["DT_FLOAT"]}}, "padding": {"s": "VkFMSUQ="}, "use_cudnn_on_gpu": {"b": true}, "leakyrelu_alpha": {"f": 0.2}, "epsilon": {"f": 0.0}, "T": {"type": "DT_FLOAT"}, "explicit_paddings": {"list": {}}, "dilations": {"list": {"i": ["1", "1", "1", "1"]}}}}, {"name": "model_99/tf.math.multiply_477/Mul", "op": "Mul", "input": ["model_99/tf.math.add_157/Add", "model_99/tf.math.sigmoid_107/Sigmoid"], "attr": {"T": {"type": "DT_FLOAT"}}}, {"name": "model_99/tf.math.multiply_481/Mul", "op": "Mul", "input": ["model_99/tf.math.add_158/Add", "model_99/tf.math.sigmoid_108/Sigmoid"], "attr": {"T": {"type": "DT_FLOAT"}}}, {"name": "model_99/tf.math.sigmoid_106/Sigmoid", "op": "Sigmoid", "input": ["model_99/tf.math.add_156/Add"], "attr": {"T": {"type": "DT_FLOAT"}}}, {"name": "model_99/tf.math.add_159/Add", "op": "_FusedConv2D", "input": ["model_99/tf.math.multiply_477/Mul", "model_99/tf.nn.convolution_117/convolution/filter", "model_99/tf.math.add_159/Add/y"], "device": "/device:CPU:0", "attr": {"num_host_args": {"i": "0"}, "data_format": {"s": "TkhXQw=="}, "filter_format": {"s": "SFdJTw=="}, "strides": {"list": {"i": ["1", "1", "1", "1"]}}, "num_args": {"i": "1"}, "fused_ops": {"list": {"s": ["Qmlhc0FkZA=="]}}, "TArgs": {"list": {"type": ["DT_FLOAT"]}}, "padding": {"s": "U0FNRQ=="}, "use_cudnn_on_gpu": {"b": true}, "leakyrelu_alpha": {"f": 0.2}, "epsilon": {"f": 0.0}, "T": {"type": "DT_FLOAT"}, "explicit_paddings": {"list": {}}, "dilations": {"list": {"i": ["1", "1", "1", "1"]}}}}, {"name": "model_99/tf.math.add_160/Add", "op": "_FusedConv2D", "input": ["model_99/tf.math.multiply_481/Mul", "model_99/tf.nn.convolution_118/convolution/filter", "model_99/tf.math.add_160/Add/y"], "device": "/device:CPU:0", "attr": {"num_host_args": {"i": "0"}, "data_format": {"s": "TkhXQw=="}, "filter_format": {"s": "SFdJTw=="}, "strides": {"list": {"i": ["1", "1", "1", "1"]}}, "num_args": {"i": "1"}, "fused_ops": {"list": {"s": ["Qmlhc0FkZA=="]}}, "TArgs": {"list": {"type": ["DT_FLOAT"]}}, "padding": {"s": "U0FNRQ=="}, "use_cudnn_on_gpu": {"b": true}, "leakyrelu_alpha": {"f": 0.2}, "epsilon": {"f": 0.0}, "T": {"type": "DT_FLOAT"}, "explicit_paddings": {"list": {}}, "dilations": {"list": {"i": ["1", "1", "1", "1"]}}}}, {"name": "model_99/tf.math.multiply_473/Mul", "op": "Mul", "input": ["model_99/tf.math.add_156/Add", "model_99/tf.math.sigmoid_106/Sigmoid"], "attr": {"T": {"type": "DT_FLOAT"}}}, {"name": "model_99/tf.math.sigmoid_109/Sigmoid", "op": "Sigmoid", "input": ["model_99/tf.math.add_159/Add"], "attr": {"T": {"type": "DT_FLOAT"}}}, {"name": "model_99/tf.math.sigmoid_110/Sigmoid", "op": "Sigmoid", "input": ["model_99/tf.math.add_160/Add"], "attr": {"T": {"type": "DT_FLOAT"}}}, {"name": "model_99/tf.concat_42/concat", "op": "ConcatV2", "input": ["model_99/tf.math.multiply_473/Mul", "model_99/tf.math.multiply_401/Mul", "model_99/tf.concat_42/concat/axis"], "attr": {"N": {"i": "2"}, "Tidx": {"type": "DT_INT32"}, "T": {"type": "DT_FLOAT"}}}, {"name": "model_99/tf.math.multiply_485/Mul", "op": "Mul", "input": ["model_99/tf.math.add_159/Add", "model_99/tf.math.sigmoid_109/Sigmoid"], "attr": {"T": {"type": "DT_FLOAT"}}}, {"name": "model_99/tf.math.multiply_489/Mul", "op": "Mul", "input": ["model_99/tf.math.add_160/Add", "model_99/tf.math.sigmoid_110/Sigmoid"], "attr": {"T": {"type": "DT_FLOAT"}}}, {"name": "model_99/tf.math.add_161/Add", "op": "_FusedConv2D", "input": ["model_99/tf.concat_42/concat", "model_99/tf.nn.convolution_119/convolution/filter", "model_99/tf.math.add_161/Add/y"], "device": "/device:CPU:0", "attr": {"num_host_args": {"i": "0"}, "data_format": {"s": "TkhXQw=="}, "filter_format": {"s": "SFdJTw=="}, "strides": {"list": {"i": ["1", "1", "1", "1"]}}, "num_args": {"i": "1"}, "fused_ops": {"list": {"s": ["Qmlhc0FkZA=="]}}, "TArgs": {"list": {"type": ["DT_FLOAT"]}}, "padding": {"s": "U0FNRQ=="}, "use_cudnn_on_gpu": {"b": true}, "leakyrelu_alpha": {"f": 0.2}, "epsilon": {"f": 0.0}, "T": {"type": "DT_FLOAT"}, "explicit_paddings": {"list": {}}, "dilations": {"list": {"i": ["1", "1", "1", "1"]}}}}, {"name": "model_99/tf.math.add_162/Add", "op": "_FusedConv2D", "input": ["model_99/tf.math.multiply_485/Mul", "model_99/tf.nn.convolution_120/convolution/filter", "model_99/tf.math.add_162/Add/y"], "device": "/device:CPU:0", "attr": {"num_host_args": {"i": "0"}, "data_format": {"s": "TkhXQw=="}, "filter_format": {"s": "SFdJTw=="}, "strides": {"list": {"i": ["1", "1", "1", "1"]}}, "num_args": {"i": "1"}, "fused_ops": {"list": {"s": ["Qmlhc0FkZA=="]}}, "TArgs": {"list": {"type": ["DT_FLOAT"]}}, "padding": {"s": "U0FNRQ=="}, "use_cudnn_on_gpu": {"b": true}, "leakyrelu_alpha": {"f": 0.2}, "epsilon": {"f": 0.0}, "T": {"type": "DT_FLOAT"}, "explicit_paddings": {"list": {}}, "dilations": {"list": {"i": ["1", "1", "1", "1"]}}}}, {"name": "model_99/tf.math.add_163/Add", "op": "_FusedConv2D", "input": ["model_99/tf.math.multiply_489/Mul", "model_99/tf.nn.convolution_121/convolution/filter", "model_99/tf.math.add_163/Add/y"], "device": "/device:CPU:0", "attr": {"num_host_args": {"i": "0"}, "data_format": {"s": "TkhXQw=="}, "filter_format": {"s": "SFdJTw=="}, "fused_ops": {"list": {"s": ["Qmlhc0FkZA=="]}}, "num_args": {"i": "1"}, "strides": {"list": {"i": ["1", "1", "1", "1"]}}, "TArgs": {"list": {"type": ["DT_FLOAT"]}}, "padding": {"s": "U0FNRQ=="}, "use_cudnn_on_gpu": {"b": true}, "leakyrelu_alpha": {"f": 0.2}, "epsilon": {"f": 0.0}, "T": {"type": "DT_FLOAT"}, "explicit_paddings": {"list": {}}, "dilations": {"list": {"i": ["1", "1", "1", "1"]}}}}, {"name": "model_99/tf.math.sigmoid_111/Sigmoid", "op": "Sigmoid", "input": ["model_99/tf.math.add_161/Add"], "attr": {"T": {"type": "DT_FLOAT"}}}, {"name": "model_99/tf.concat_43/concat", "op": "ConcatV2", "input": ["model_99/tf.math.add_162/Add", "model_99/tf.math.add_163/Add", "model_99/tf.concat_43/concat/axis"], "attr": {"N": {"i": "2"}, "Tidx": {"type": "DT_INT32"}, "T": {"type": "DT_FLOAT"}}}, {"name": "model_99/tf.math.multiply_493/Mul", "op": "Mul", "input": ["model_99/tf.math.add_161/Add", "model_99/tf.math.sigmoid_111/Sigmoid"], "attr": {"T": {"type": "DT_FLOAT"}}}, {"name": "model_99/tf.compat.v1.transpose_369/transpose", "op": "Transpose", "input": ["model_99/tf.concat_43/concat", "model_99/tf.compat.v1.transpose_369/transpose/perm"], "attr": {"Tperm": {"type": "DT_INT32"}, "T": {"type": "DT_FLOAT"}}}, {"name": "model_99/tf.strided_slice_34/StridedSlice", "op": "StridedSlice", "input": ["model_99/tf.math.multiply_493/Mul", "model_99/tf.strided_slice_34/ones_like/tensor", "model_99/tf.strided_slice_34/StridedSlice/end", "model_99/tf.strided_slice_34/ones_like"], "attr": {"shrink_axis_mask": {"i": "0"}, "new_axis_mask": {"i": "0"}, "Index": {"type": "DT_INT64"}, "begin_mask": {"i": "15"}, "T": {"type": "DT_FLOAT"}, "end_mask": {"i": "7"}, "ellipsis_mask": {"i": "0"}}}, {"name": "model_99/tf.strided_slice_35/StridedSlice", "op": "StridedSlice", "input": ["model_99/tf.math.multiply_493/Mul", "model_99/tf.strided_slice_35/ones_like/tensor", "model_99/tf.strided_slice_35/StridedSlice/end", "model_99/tf.strided_slice_35/ones_like"], "attr": {"shrink_axis_mask": {"i": "0"}, "new_axis_mask": {"i": "0"}, "Index": {"type": "DT_INT64"}, "begin_mask": {"i": "7"}, "end_mask": {"i": "7"}, "T": {"type": "DT_FLOAT"}, "ellipsis_mask": {"i": "0"}}}, {"name": "model_99/tf.reshape_60/Reshape", "op": "Reshape", "input": ["model_99/tf.compat.v1.transpose_369/transpose", "model_99/tf.reshape_60/Reshape/shape"], "attr": {"T": {"type": "DT_FLOAT"}, "Tshape": {"type": "DT_INT32"}}}, {"name": "model_99/tf.math.add_164/Add", "op": "_FusedConv2D", "input": ["model_99/tf.strided_slice_35/StridedSlice", "model_99/tf.nn.convolution_122/convolution/filter", "model_99/tf.math.add_164/Add/y"], "device": "/device:CPU:0", "attr": {"num_host_args": {"i": "0"}, "data_format": {"s": "TkhXQw=="}, "filter_format": {"s": "SFdJTw=="}, "strides": {"list": {"i": ["1", "1", "1", "1"]}}, "num_args": {"i": "1"}, "fused_ops": {"list": {"s": ["Qmlhc0FkZA=="]}}, "TArgs": {"list": {"type": ["DT_FLOAT"]}}, "padding": {"s": "U0FNRQ=="}, "use_cudnn_on_gpu": {"b": true}, "leakyrelu_alpha": {"f": 0.2}, "epsilon": {"f": 0.0}, "T": {"type": "DT_FLOAT"}, "explicit_paddings": {"list": {}}, "dilations": {"list": {"i": ["1", "1", "1", "1"]}}}}, {"name": "model_99/tf.math.sigmoid_112/Sigmoid", "op": "Sigmoid", "input": ["model_99/tf.math.add_164/Add"], "attr": {"T": {"type": "DT_FLOAT"}}}, {"name": "model_99/tf.math.multiply_497/Mul", "op": "Mul", "input": ["model_99/tf.math.add_164/Add", "model_99/tf.math.sigmoid_112/Sigmoid"], "attr": {"T": {"type": "DT_FLOAT"}}}, {"name": "model_99/tf.math.add_165/Add", "op": "_FusedConv2D", "input": ["model_99/tf.math.multiply_497/Mul", "model_99/tf.nn.convolution_123/convolution/filter", "model_99/tf.math.add_165/Add/y"], "device": "/device:CPU:0", "attr": {"num_host_args": {"i": "0"}, "data_format": {"s": "TkhXQw=="}, "filter_format": {"s": "SFdJTw=="}, "fused_ops": {"list": {"s": ["Qmlhc0FkZA=="]}}, "num_args": {"i": "1"}, "strides": {"list": {"i": ["1", "1", "1", "1"]}}, "TArgs": {"list": {"type": ["DT_FLOAT"]}}, "padding": {"s": "U0FNRQ=="}, "use_cudnn_on_gpu": {"b": true}, "leakyrelu_alpha": {"f": 0.2}, "epsilon": {"f": 0.0}, "T": {"type": "DT_FLOAT"}, "explicit_paddings": {"list": {}}, "dilations": {"list": {"i": ["1", "1", "1", "1"]}}}}, {"name": "model_99/tf.math.sigmoid_113/Sigmoid", "op": "Sigmoid", "input": ["model_99/tf.math.add_165/Add"], "attr": {"T": {"type": "DT_FLOAT"}}}, {"name": "model_99/tf.math.multiply_501/Mul", "op": "Mul", "input": ["model_99/tf.math.add_165/Add", "model_99/tf.math.sigmoid_113/Sigmoid"], "attr": {"T": {"type": "DT_FLOAT"}}}, {"name": "model_99/tf.concat_44/concat", "op": "ConcatV2", "input": ["model_99/tf.strided_slice_34/StridedSlice", "model_99/tf.strided_slice_35/StridedSlice", "model_99/tf.math.multiply_501/Mul", "model_99/tf.concat_44/concat/axis"], "attr": {"N": {"i": "3"}, "T": {"type": "DT_FLOAT"}, "Tidx": {"type": "DT_INT32"}}}, {"name": "model_99/tf.math.add_166/Add", "op": "_FusedConv2D", "input": ["model_99/tf.concat_44/concat", "model_99/tf.nn.convolution_124/convolution/filter", "model_99/tf.math.add_166/Add/y"], "device": "/device:CPU:0", "attr": {"num_host_args": {"i": "0"}, "data_format": {"s": "TkhXQw=="}, "filter_format": {"s": "SFdJTw=="}, "fused_ops": {"list": {"s": ["Qmlhc0FkZA=="]}}, "num_args": {"i": "1"}, "strides": {"list": {"i": ["1", "1", "1", "1"]}}, "TArgs": {"list": {"type": ["DT_FLOAT"]}}, "padding": {"s": "U0FNRQ=="}, "use_cudnn_on_gpu": {"b": true}, "leakyrelu_alpha": {"f": 0.2}, "epsilon": {"f": 0.0}, "T": {"type": "DT_FLOAT"}, "explicit_paddings": {"list": {}}, "dilations": {"list": {"i": ["1", "1", "1", "1"]}}}}, {"name": "model_99/tf.math.sigmoid_114/Sigmoid", "op": "Sigmoid", "input": ["model_99/tf.math.add_166/Add"], "attr": {"T": {"type": "DT_FLOAT"}}}, {"name": "model_99/tf.math.multiply_505/Mul", "op": "Mul", "input": ["model_99/tf.math.add_166/Add", "model_99/tf.math.sigmoid_114/Sigmoid"], "attr": {"T": {"type": "DT_FLOAT"}}}, {"name": "model_99/tf.math.add_167/Add", "op": "_FusedConv2D", "input": ["model_99/tf.math.multiply_505/Mul", "model_99/tf.nn.convolution_125/convolution/filter", "model_99/tf.math.add_167/Add/y"], "device": "/device:CPU:0", "attr": {"num_host_args": {"i": "0"}, "data_format": {"s": "TkhXQw=="}, "filter_format": {"s": "SFdJTw=="}, "fused_ops": {"list": {"s": ["Qmlhc0FkZA=="]}}, "num_args": {"i": "1"}, "strides": {"list": {"i": ["1", "1", "1", "1"]}}, "TArgs": {"list": {"type": ["DT_FLOAT"]}}, "padding": {"s": "U0FNRQ=="}, "use_cudnn_on_gpu": {"b": true}, "leakyrelu_alpha": {"f": 0.2}, "epsilon": {"f": 0.0}, "T": {"type": "DT_FLOAT"}, "explicit_paddings": {"list": {}}, "dilations": {"list": {"i": ["1", "1", "1", "1"]}}}}, {"name": "model_99/tf.math.add_168/Add", "op": "_FusedConv2D", "input": ["model_99/tf.math.multiply_505/Mul", "model_99/tf.nn.convolution_126/convolution/filter", "model_99/tf.math.add_168/Add/y"], "device": "/device:CPU:0", "attr": {"num_host_args": {"i": "0"}, "data_format": {"s": "TkhXQw=="}, "filter_format": {"s": "SFdJTw=="}, "fused_ops": {"list": {"s": ["Qmlhc0FkZA=="]}}, "num_args": {"i": "1"}, "strides": {"list": {"i": ["1", "1", "1", "1"]}}, "TArgs": {"list": {"type": ["DT_FLOAT"]}}, "padding": {"s": "U0FNRQ=="}, "use_cudnn_on_gpu": {"b": true}, "leakyrelu_alpha": {"f": 0.2}, "epsilon": {"f": 0.0}, "T": {"type": "DT_FLOAT"}, "explicit_paddings": {"list": {}}, "dilations": {"list": {"i": ["1", "1", "1", "1"]}}}}, {"name": "model_99/tf.math.sigmoid_115/Sigmoid", "op": "Sigmoid", "input": ["model_99/tf.math.add_167/Add"], "attr": {"T": {"type": "DT_FLOAT"}}}, {"name": "model_99/tf.math.sigmoid_116/Sigmoid", "op": "Sigmoid", "input": ["model_99/tf.math.add_168/Add"], "attr": {"T": {"type": "DT_FLOAT"}}}, {"name": "model_99/tf.math.multiply_509/Mul", "op": "Mul", "input": ["model_99/tf.math.add_167/Add", "model_99/tf.math.sigmoid_115/Sigmoid"], "attr": {"T": {"type": "DT_FLOAT"}}}, {"name": "model_99/tf.math.multiply_513/Mul", "op": "Mul", "input": ["model_99/tf.math.add_168/Add", "model_99/tf.math.sigmoid_116/Sigmoid"], "attr": {"T": {"type": "DT_FLOAT"}}}, {"name": "model_99/tf.math.add_169/Add", "op": "_FusedConv2D", "input": ["model_99/tf.math.multiply_509/Mul", "model_99/tf.nn.convolution_127/convolution/filter", "model_99/tf.math.add_169/Add/y"], "device": "/device:CPU:0", "attr": {"num_host_args": {"i": "0"}, "data_format": {"s": "TkhXQw=="}, "filter_format": {"s": "SFdJTw=="}, "strides": {"list": {"i": ["1", "1", "1", "1"]}}, "num_args": {"i": "1"}, "fused_ops": {"list": {"s": ["Qmlhc0FkZA=="]}}, "TArgs": {"list": {"type": ["DT_FLOAT"]}}, "padding": {"s": "U0FNRQ=="}, "use_cudnn_on_gpu": {"b": true}, "leakyrelu_alpha": {"f": 0.2}, "epsilon": {"f": 0.0}, "T": {"type": "DT_FLOAT"}, "explicit_paddings": {"list": {}}, "dilations": {"list": {"i": ["1", "1", "1", "1"]}}}}, {"name": "model_99/tf.math.add_170/Add", "op": "_FusedConv2D", "input": ["model_99/tf.math.multiply_513/Mul", "model_99/tf.nn.convolution_128/convolution/filter", "model_99/tf.math.add_170/Add/y"], "device": "/device:CPU:0", "attr": {"num_host_args": {"i": "0"}, "data_format": {"s": "TkhXQw=="}, "filter_format": {"s": "SFdJTw=="}, "fused_ops": {"list": {"s": ["Qmlhc0FkZA=="]}}, "num_args": {"i": "1"}, "strides": {"list": {"i": ["1", "1", "1", "1"]}}, "TArgs": {"list": {"type": ["DT_FLOAT"]}}, "padding": {"s": "U0FNRQ=="}, "use_cudnn_on_gpu": {"b": true}, "leakyrelu_alpha": {"f": 0.2}, "epsilon": {"f": 0.0}, "T": {"type": "DT_FLOAT"}, "explicit_paddings": {"list": {}}, "dilations": {"list": {"i": ["1", "1", "1", "1"]}}}}, {"name": "model_99/tf.math.sigmoid_117/Sigmoid", "op": "Sigmoid", "input": ["model_99/tf.math.add_169/Add"], "attr": {"T": {"type": "DT_FLOAT"}}}, {"name": "model_99/tf.math.sigmoid_118/Sigmoid", "op": "Sigmoid", "input": ["model_99/tf.math.add_170/Add"], "attr": {"T": {"type": "DT_FLOAT"}}}, {"name": "model_99/tf.math.multiply_517/Mul", "op": "Mul", "input": ["model_99/tf.math.add_169/Add", "model_99/tf.math.sigmoid_117/Sigmoid"], "attr": {"T": {"type": "DT_FLOAT"}}}, {"name": "model_99/tf.math.multiply_521/Mul", "op": "Mul", "input": ["model_99/tf.math.add_170/Add", "model_99/tf.math.sigmoid_118/Sigmoid"], "attr": {"T": {"type": "DT_FLOAT"}}}, {"name": "model_99/tf.math.add_171/Add", "op": "_FusedConv2D", "input": ["model_99/tf.math.multiply_517/Mul", "model_99/tf.nn.convolution_129/convolution/filter", "model_99/tf.math.add_171/Add/y"], "device": "/device:CPU:0", "attr": {"num_host_args": {"i": "0"}, "data_format": {"s": "TkhXQw=="}, "filter_format": {"s": "SFdJTw=="}, "fused_ops": {"list": {"s": ["Qmlhc0FkZA=="]}}, "num_args": {"i": "1"}, "strides": {"list": {"i": ["1", "1", "1", "1"]}}, "TArgs": {"list": {"type": ["DT_FLOAT"]}}, "padding": {"s": "U0FNRQ=="}, "use_cudnn_on_gpu": {"b": true}, "leakyrelu_alpha": {"f": 0.2}, "epsilon": {"f": 0.0}, "T": {"type": "DT_FLOAT"}, "explicit_paddings": {"list": {}}, "dilations": {"list": {"i": ["1", "1", "1", "1"]}}}}, {"name": "model_99/tf.math.add_172/Add", "op": "_FusedConv2D", "input": ["model_99/tf.math.multiply_521/Mul", "model_99/tf.nn.convolution_130/convolution/filter", "model_99/tf.math.add_172/Add/y"], "device": "/device:CPU:0", "attr": {"num_host_args": {"i": "0"}, "data_format": {"s": "TkhXQw=="}, "filter_format": {"s": "SFdJTw=="}, "fused_ops": {"list": {"s": ["Qmlhc0FkZA=="]}}, "num_args": {"i": "1"}, "strides": {"list": {"i": ["1", "1", "1", "1"]}}, "TArgs": {"list": {"type": ["DT_FLOAT"]}}, "padding": {"s": "U0FNRQ=="}, "use_cudnn_on_gpu": {"b": true}, "leakyrelu_alpha": {"f": 0.2}, "epsilon": {"f": 0.0}, "T": {"type": "DT_FLOAT"}, "explicit_paddings": {"list": {}}, "dilations": {"list": {"i": ["1", "1", "1", "1"]}}}}, {"name": "model_99/tf.concat_45/concat", "op": "ConcatV2", "input": ["model_99/tf.math.add_171/Add", "model_99/tf.math.add_172/Add", "model_99/tf.concat_45/concat/axis"], "attr": {"N": {"i": "2"}, "T": {"type": "DT_FLOAT"}, "Tidx": {"type": "DT_INT32"}}}, {"name": "model_99/tf.compat.v1.transpose_381/transpose", "op": "Transpose", "input": ["model_99/tf.concat_45/concat", "model_99/tf.compat.v1.transpose_381/transpose/perm"], "attr": {"Tperm": {"type": "DT_INT32"}, "T": {"type": "DT_FLOAT"}}}, {"name": "model_99/tf.reshape_63/Reshape", "op": "Reshape", "input": ["model_99/tf.compat.v1.transpose_381/transpose", "model_99/tf.reshape_63/Reshape/shape"], "attr": {"T": {"type": "DT_FLOAT"}, "Tshape": {"type": "DT_INT32"}}}, {"name": "model_99/tf.concat_46/concat", "op": "ConcatV2", "input": ["model_99/tf.reshape_57/Reshape", "model_99/tf.reshape_60/Reshape", "model_99/tf.reshape_63/Reshape", "model_99/tf.concat_46/concat/axis"], "attr": {"N": {"i": "3"}, "T": {"type": "DT_FLOAT"}, "Tidx": {"type": "DT_INT32"}}}, {"name": "model_99/tf.strided_slice_37/StridedSlice", "op": "StridedSlice", "input": ["model_99/tf.concat_46/concat", "model_99/tf.strided_slice_37/StridedSlice/begin", "model_99/tf.strided_slice_37/StridedSlice/end", "model_99/tf.strided_slice_37/ones_like"], "attr": {"shrink_axis_mask": {"i": "0"}, "new_axis_mask": {"i": "0"}, "Index": {"type": "DT_INT32"}, "begin_mask": {"i": "5"}, "T": {"type": "DT_FLOAT"}, "end_mask": {"i": "5"}, "ellipsis_mask": {"i": "0"}}}, {"name": "model_99/tf.strided_slice_36/StridedSlice", "op": "StridedSlice", "input": ["model_99/tf.concat_46/concat", "model_99/tf.strided_slice_36/StridedSlice/begin", "model_99/tf.strided_slice_36/StridedSlice/end", "model_99/tf.strided_slice_36/ones_like"], "attr": {"shrink_axis_mask": {"i": "0"}, "Index": {"type": "DT_INT32"}, "new_axis_mask": {"i": "0"}, "begin_mask": {"i": "5"}, "T": {"type": "DT_FLOAT"}, "end_mask": {"i": "5"}, "ellipsis_mask": {"i": "0"}}}, {"name": "model_99/tf.math.sigmoid_119/Sigmoid", "op": "Sigmoid", "input": ["model_99/tf.strided_slice_37/StridedSlice"], "attr": {"T": {"type": "DT_FLOAT"}}}, {"name": "model_99/tf.reshape_66/Reshape", "op": "Reshape", "input": ["model_99/tf.strided_slice_36/StridedSlice", "model_99/tf.reshape_66/Reshape/shape"], "attr": {"T": {"type": "DT_FLOAT"}, "Tshape": {"type": "DT_INT32"}}}, {"name": "model_99/tf.compat.v1.transpose_388/transpose", "op": "Transpose", "input": ["model_99/tf.reshape_66/Reshape", "model_99/tf.compat.v1.transpose_388/transpose/perm"], "attr": {"Tperm": {"type": "DT_INT32"}, "T": {"type": "DT_FLOAT"}}}, {"name": "model_99/tf.compat.v1.transpose_389/transpose", "op": "Transpose", "input": ["model_99/tf.compat.v1.transpose_388/transpose", "model_99/tf.compat.v1.transpose_389/transpose/perm"], "attr": {"Tperm": {"type": "DT_INT32"}, "T": {"type": "DT_FLOAT"}}}, {"name": "model_99/tf.nn.softmax_1/wa/model.22/dfl/Softmax", "op": "Softmax", "input": ["model_99/tf.compat.v1.transpose_389/transpose"], "attr": {"T": {"type": "DT_FLOAT"}}}, {"name": "model_99/tf.nn.convolution_131/convolution", "op": "Conv2D", "input": ["model_99/tf.nn.softmax_1/wa/model.22/dfl/Softmax", "model_99/tf.nn.convolution_131/convolution/filter"], "device": "/device:CPU:0", "attr": {"padding": {"s": "U0FNRQ=="}, "data_format": {"s": "TkhXQw=="}, "use_cudnn_on_gpu": {"b": true}, "strides": {"list": {"i": ["1", "1", "1", "1"]}}, "T": {"type": "DT_FLOAT"}, "explicit_paddings": {"list": {}}, "dilations": {"list": {"i": ["1", "1", "1", "1"]}}}}, {"name": "model_99/tf.compat.v1.transpose_394/transpose", "op": "Transpose", "input": ["model_99/tf.nn.convolution_131/convolution", "model_99/tf.compat.v1.transpose_394/transpose/perm"], "attr": {"Tperm": {"type": "DT_INT32"}, "T": {"type": "DT_FLOAT"}}}, {"name": "model_99/tf.reshape_69/Reshape", "op": "Reshape", "input": ["model_99/tf.compat.v1.transpose_394/transpose", "model_99/tf.reshape_69/Reshape/shape"], "attr": {"T": {"type": "DT_FLOAT"}, "Tshape": {"type": "DT_INT32"}}}, {"name": "model_99/tf.strided_slice_39/StridedSlice", "op": "StridedSlice", "input": ["model_99/tf.reshape_69/Reshape", "model_99/tf.strided_slice_39/ones_like/tensor", "model_99/tf.strided_slice_39/StridedSlice/end", "model_99/tf.strided_slice_39/ones_like"], "attr": {"shrink_axis_mask": {"i": "0"}, "new_axis_mask": {"i": "0"}, "Index": {"type": "DT_INT64"}, "begin_mask": {"i": "5"}, "end_mask": {"i": "5"}, "T": {"type": "DT_FLOAT"}, "ellipsis_mask": {"i": "0"}}}, {"name": "model_99/tf.strided_slice_38/StridedSlice", "op": "StridedSlice", "input": ["model_99/tf.reshape_69/Reshape", "model_99/tf.strided_slice_38/ones_like/tensor", "model_99/tf.strided_slice_38/StridedSlice/end", "model_99/tf.strided_slice_38/ones_like"], "attr": {"shrink_axis_mask": {"i": "0"}, "new_axis_mask": {"i": "0"}, "Index": {"type": "DT_INT64"}, "begin_mask": {"i": "7"}, "end_mask": {"i": "5"}, "T": {"type": "DT_FLOAT"}, "ellipsis_mask": {"i": "0"}}}, {"name": "model_99/tf.math.add_173/Add", "op": "AddV2", "input": ["model_99/tf.strided_slice_39/StridedSlice", "model_99/tf.math.add_173/Add/y"], "attr": {"T": {"type": "DT_FLOAT"}}}, {"name": "model_99/tf.math.subtract_2/Sub", "op": "Sub", "input": ["model_99/50443", "model_99/tf.strided_slice_38/StridedSlice"], "attr": {"T": {"type": "DT_FLOAT"}}}, {"name": "model_99/tf.math.add_174/Add", "op": "AddV2", "input": ["model_99/tf.math.subtract_2/Sub", "model_99/tf.math.add_173/Add"], "attr": {"T": {"type": "DT_FLOAT"}}}, {"name": "model_99/tf.math.subtract_3/Sub", "op": "Sub", "input": ["model_99/tf.math.add_173/Add", "model_99/tf.math.subtract_2/Sub"], "attr": {"T": {"type": "DT_FLOAT"}}}, {"name": "model_99/tf.math.divide_5/truediv", "op": "Mul", "input": ["model_99/tf.math.add_174/Add", "ConstantFolding/model_99/tf.math.divide_5/truediv_recip"], "attr": {"T": {"type": "DT_FLOAT"}}}, {"name": "model_99/tf.concat_50/concat", "op": "ConcatV2", "input": ["model_99/tf.math.divide_5/truediv", "model_99/tf.math.subtract_3/Sub", "model_99/tf.concat_50/concat/axis"], "attr": {"N": {"i": "2"}, "T": {"type": "DT_FLOAT"}, "Tidx": {"type": "DT_INT32"}}}, {"name": "model_99/tf.math.multiply_534/Mul", "op": "Mul", "input": ["model_99/tf.concat_50/concat", "model_99/tf.math.multiply_534/Mul/y"], "attr": {"T": {"type": "DT_FLOAT"}}}, {"name": "model_99/output0/concat", "op": "ConcatV2", "input": ["model_99/tf.math.multiply_534/Mul", "model_99/tf.math.sigmoid_119/Sigmoid", "model_99/output0/concat/axis"], "attr": {"N": {"i": "2"}, "Tidx": {"type": "DT_INT32"}, "T": {"type": "DT_FLOAT"}}}, {"name": "Identity", "op": "Identity", "input": ["model_99/output0/concat"], "attr": {"T": {"type": "DT_FLOAT"}}}], "library": {}, "versions": {"producer": 2129}}, "weightsManifest": [{"paths": ["group1-shard1of4.bin", "group1-shard2of4.bin", "group1-shard3of4.bin", "group1-shard4of4.bin"], "weights": [{"name": "ConstantFolding/model_99/tf.math.divide_5/truediv_recip", "shape": [], "dtype": "float32"}, {"name": "model_99/tf.strided_slice_39/ones_like/tensor", "shape": [3], "dtype": "int32"}, {"name": "model_99/tf.strided_slice_39/StridedSlice/end", "shape": [3], "dtype": "int32"}, {"name": "model_99/tf.strided_slice_39/ones_like", "shape": [3], "dtype": "int32"}, {"name": "model_99/tf.math.add_173/Add/y", "shape": [1, 2, 8400], "dtype": "float32"}, {"name": "model_99/50443", "shape": [1, 2, 8400], "dtype": "float32"}, {"name": "model_99/tf.strided_slice_36/StridedSlice/begin", "shape": [3], "dtype": "int32"}, {"name": "model_99/tf.strided_slice_36/StridedSlice/end", "shape": [3], "dtype": "int32"}, {"name": "model_99/tf.strided_slice_36/ones_like", "shape": [3], "dtype": "int32"}, {"name": "model_99/tf.reshape_66/Reshape/shape", "shape": [4], "dtype": "int32"}, {"name": "model_99/tf.compat.v1.transpose_388/transpose/perm", "shape": [4], "dtype": "int32"}, {"name": "model_99/tf.compat.v1.transpose_389/transpose/perm", "shape": [4], "dtype": "int32"}, {"name": "model_99/tf.nn.convolution_131/convolution/filter", "shape": [1, 1, 16, 1], "dtype": "float32"}, {"name": "model_99/tf.compat.v1.transpose_394/transpose/perm", "shape": [4], "dtype": "int32"}, {"name": "model_99/tf.reshape_69/Reshape/shape", "shape": [3], "dtype": "int32"}, {"name": "model_99/tf.strided_slice_38/ones_like/tensor", "shape": [3], "dtype": "int32"}, {"name": "model_99/tf.strided_slice_38/StridedSlice/end", "shape": [3], "dtype": "int32"}, {"name": "model_99/tf.strided_slice_38/ones_like", "shape": [3], "dtype": "int32"}, {"name": "model_99/tf.concat_50/concat/axis", "shape": [], "dtype": "int32"}, {"name": "model_99/tf.math.multiply_534/Mul/y", "shape": [1, 1, 8400], "dtype": "float32"}, {"name": "model_99/tf.nn.convolution_104/convolution/filter", "shape": [3, 3, 64, 64], "dtype": "float32"}, {"name": "model_99/tf.math.add_146/Add/y", "shape": [64], "dtype": "float32"}, {"name": "model_99/tf.nn.convolution_106/convolution/filter", "shape": [3, 3, 64, 64], "dtype": "float32"}, {"name": "model_99/tf.math.add_148/Add/y", "shape": [64], "dtype": "float32"}, {"name": "model_99/tf.nn.convolution_109/convolution/filter", "shape": [1, 1, 64, 64], "dtype": "float32"}, {"name": "model_99/tf.math.add_151/Add/y", "shape": [64], "dtype": "float32"}, {"name": "model_99/tf.nn.convolution_105/convolution/filter", "shape": [3, 3, 64, 100], "dtype": "float32"}, {"name": "model_99/tf.math.add_147/Add/y", "shape": [100], "dtype": "float32"}, {"name": "model_99/tf.nn.convolution_107/convolution/filter", "shape": [3, 3, 100, 100], "dtype": "float32"}, {"name": "model_99/tf.math.add_149/Add/y", "shape": [100], "dtype": "float32"}, {"name": "model_99/tf.nn.convolution_110/convolution/filter", "shape": [1, 1, 100, 601], "dtype": "float32"}, {"name": "model_99/tf.math.add_152/Add/y", "shape": [601], "dtype": "float32"}, {"name": "model_99/tf.concat_40/concat/axis", "shape": [], "dtype": "int32"}, {"name": "model_99/tf.compat.v1.transpose_355/transpose/perm", "shape": [4], "dtype": "int32"}, {"name": "model_99/tf.reshape_57/Reshape/shape", "shape": [3], "dtype": "int32"}, {"name": "model_99/tf.nn.convolution_115/convolution/filter", "shape": [3, 3, 128, 64], "dtype": "float32"}, {"name": "model_99/tf.math.add_157/Add/y", "shape": [64], "dtype": "float32"}, {"name": "model_99/tf.nn.convolution_117/convolution/filter", "shape": [3, 3, 64, 64], "dtype": "float32"}, {"name": "model_99/tf.math.add_159/Add/y", "shape": [64], "dtype": "float32"}, {"name": "model_99/tf.nn.convolution_120/convolution/filter", "shape": [1, 1, 64, 64], "dtype": "float32"}, {"name": "model_99/tf.math.add_162/Add/y", "shape": [64], "dtype": "float32"}, {"name": "model_99/tf.nn.convolution_116/convolution/filter", "shape": [3, 3, 128, 100], "dtype": "float32"}, {"name": "model_99/tf.math.add_158/Add/y", "shape": [100], "dtype": "float32"}, {"name": "model_99/tf.nn.convolution_118/convolution/filter", "shape": [3, 3, 100, 100], "dtype": "float32"}, {"name": "model_99/tf.math.add_160/Add/y", "shape": [100], "dtype": "float32"}, {"name": "model_99/tf.nn.convolution_121/convolution/filter", "shape": [1, 1, 100, 601], "dtype": "float32"}, {"name": "model_99/tf.math.add_163/Add/y", "shape": [601], "dtype": "float32"}, {"name": "model_99/tf.concat_43/concat/axis", "shape": [], "dtype": "int32"}, {"name": "model_99/tf.compat.v1.transpose_369/transpose/perm", "shape": [4], "dtype": "int32"}, {"name": "model_99/tf.reshape_60/Reshape/shape", "shape": [3], "dtype": "int32"}, {"name": "model_99/tf.nn.convolution_125/convolution/filter", "shape": [3, 3, 256, 64], "dtype": "float32"}, {"name": "model_99/tf.math.add_167/Add/y", "shape": [64], "dtype": "float32"}, {"name": "model_99/tf.nn.convolution_127/convolution/filter", "shape": [3, 3, 64, 64], "dtype": "float32"}, {"name": "model_99/tf.math.add_169/Add/y", "shape": [64], "dtype": "float32"}, {"name": "model_99/tf.nn.convolution_129/convolution/filter", "shape": [1, 1, 64, 64], "dtype": "float32"}, {"name": "model_99/tf.math.add_171/Add/y", "shape": [64], "dtype": "float32"}, {"name": "model_99/tf.strided_slice_34/ones_like/tensor", "shape": [4], "dtype": "int32"}, {"name": "model_99/tf.strided_slice_34/StridedSlice/end", "shape": [4], "dtype": "int32"}, {"name": "model_99/tf.strided_slice_34/ones_like", "shape": [4], "dtype": "int32"}, {"name": "model_99/tf.strided_slice_32/ones_like/tensor", "shape": [4], "dtype": "int32"}, {"name": "model_99/tf.strided_slice_32/StridedSlice/end", "shape": [4], "dtype": "int32"}, {"name": "model_99/tf.strided_slice_32/ones_like", "shape": [4], "dtype": "int32"}, {"name": "model_99/tf.strided_slice_30/ones_like/tensor", "shape": [4], "dtype": "int32"}, {"name": "model_99/tf.strided_slice_30/StridedSlice/end", "shape": [4], "dtype": "int32"}, {"name": "model_99/tf.strided_slice_30/ones_like", "shape": [4], "dtype": "int32"}, {"name": "model_99/tf.image.resize_3/resize/size", "shape": [2], "dtype": "int32"}, {"name": "model_99/tf.concat_37/concat/axis", "shape": [], "dtype": "int32"}, {"name": "model_99/tf.nn.convolution_99/convolution/filter", "shape": [1, 1, 192, 64], "dtype": "float32"}, {"name": "model_99/tf.math.add_141/Add/y", "shape": [64], "dtype": "float32"}, {"name": "model_99/tf.strided_slice_31/ones_like/tensor", "shape": [4], "dtype": "int32"}, {"name": "model_99/tf.strided_slice_31/StridedSlice/end", "shape": [4], "dtype": "int32"}, {"name": "model_99/tf.strided_slice_31/ones_like", "shape": [4], "dtype": "int32"}, {"name": "model_99/tf.nn.convolution_100/convolution/filter", "shape": [3, 3, 32, 32], "dtype": "float32"}, {"name": "model_99/tf.math.add_142/Add/y", "shape": [32], "dtype": "float32"}, {"name": "model_99/tf.nn.convolution_101/convolution/filter", "shape": [3, 3, 32, 32], "dtype": "float32"}, {"name": "model_99/tf.math.add_143/Add/y", "shape": [32], "dtype": "float32"}, {"name": "model_99/tf.concat_38/concat/axis", "shape": [], "dtype": "int32"}, {"name": "model_99/tf.nn.convolution_102/convolution/filter", "shape": [1, 1, 96, 64], "dtype": "float32"}, {"name": "model_99/tf.math.add_144/Add/y", "shape": [64], "dtype": "float32"}, {"name": "model_99/tf.compat.v1.pad_12/Pad/paddings", "shape": [4, 2], "dtype": "int32"}, {"name": "model_99/tf.nn.convolution_103/convolution/filter", "shape": [3, 3, 64, 64], "dtype": "float32"}, {"name": "model_99/tf.math.add_145/Add/y", "shape": [64], "dtype": "float32"}, {"name": "model_99/tf.strided_slice_28/ones_like/tensor", "shape": [4], "dtype": "int32"}, {"name": "model_99/tf.strided_slice_28/StridedSlice/end", "shape": [4], "dtype": "int32"}, {"name": "model_99/tf.strided_slice_28/ones_like", "shape": [4], "dtype": "int32"}, {"name": "model_99/tf.image.resize_2/resize/size", "shape": [2], "dtype": "int32"}, {"name": "model_99/tf.concat_35/concat/axis", "shape": [], "dtype": "int32"}, {"name": "model_99/tf.nn.convolution_95/convolution/filter", "shape": [1, 1, 384, 128], "dtype": "float32"}, {"name": "model_99/tf.math.add_137/Add/y", "shape": [128], "dtype": "float32"}, {"name": "model_99/tf.strided_slice_29/ones_like/tensor", "shape": [4], "dtype": "int32"}, {"name": "model_99/tf.strided_slice_29/StridedSlice/end", "shape": [4], "dtype": "int32"}, {"name": "model_99/tf.strided_slice_29/ones_like", "shape": [4], "dtype": "int32"}, {"name": "model_99/tf.nn.convolution_96/convolution/filter", "shape": [3, 3, 64, 64], "dtype": "float32"}, {"name": "model_99/tf.math.add_138/Add/y", "shape": [64], "dtype": "float32"}, {"name": "model_99/tf.nn.convolution_97/convolution/filter", "shape": [3, 3, 64, 64], "dtype": "float32"}, {"name": "model_99/tf.math.add_139/Add/y", "shape": [64], "dtype": "float32"}, {"name": "model_99/tf.concat_36/concat/axis", "shape": [], "dtype": "int32"}, {"name": "model_99/tf.nn.convolution_98/convolution/filter", "shape": [1, 1, 192, 128], "dtype": "float32"}, {"name": "model_99/tf.math.add_140/Add/y", "shape": [128], "dtype": "float32"}, {"name": "model_99/tf.concat_39/concat/axis", "shape": [], "dtype": "int32"}, {"name": "model_99/tf.nn.convolution_108/convolution/filter", "shape": [1, 1, 192, 128], "dtype": "float32"}, {"name": "model_99/tf.math.add_150/Add/y", "shape": [128], "dtype": "float32"}, {"name": "model_99/tf.strided_slice_33/ones_like/tensor", "shape": [4], "dtype": "int32"}, {"name": "model_99/tf.strided_slice_33/StridedSlice/end", "shape": [4], "dtype": "int32"}, {"name": "model_99/tf.strided_slice_33/ones_like", "shape": [4], "dtype": "int32"}, {"name": "model_99/tf.nn.convolution_111/convolution/filter", "shape": [3, 3, 64, 64], "dtype": "float32"}, {"name": "model_99/tf.math.add_153/Add/y", "shape": [64], "dtype": "float32"}, {"name": "model_99/tf.nn.convolution_112/convolution/filter", "shape": [3, 3, 64, 64], "dtype": "float32"}, {"name": "model_99/tf.math.add_154/Add/y", "shape": [64], "dtype": "float32"}, {"name": "model_99/tf.concat_41/concat/axis", "shape": [], "dtype": "int32"}, {"name": "model_99/tf.nn.convolution_113/convolution/filter", "shape": [1, 1, 192, 128], "dtype": "float32"}, {"name": "model_99/tf.math.add_155/Add/y", "shape": [128], "dtype": "float32"}, {"name": "model_99/tf.compat.v1.pad_13/Pad/paddings", "shape": [4, 2], "dtype": "int32"}, {"name": "model_99/tf.nn.convolution_114/convolution/filter", "shape": [3, 3, 128, 128], "dtype": "float32"}, {"name": "model_99/tf.math.add_156/Add/y", "shape": [128], "dtype": "float32"}, {"name": "model_99/tf.strided_slice_26/ones_like/tensor", "shape": [4], "dtype": "int32"}, {"name": "model_99/tf.strided_slice_26/StridedSlice/end", "shape": [4], "dtype": "int32"}, {"name": "model_99/tf.strided_slice_26/ones_like", "shape": [4], "dtype": "int32"}, {"name": "model_99/tf.strided_slice_24/ones_like/tensor", "shape": [4], "dtype": "int32"}, {"name": "model_99/tf.strided_slice_24/StridedSlice/end", "shape": [4], "dtype": "int32"}, {"name": "model_99/tf.strided_slice_24/ones_like", "shape": [4], "dtype": "int32"}, {"name": "model_99/tf.strided_slice_22/ones_like/tensor", "shape": [4], "dtype": "int32"}, {"name": "model_99/tf.strided_slice_22/StridedSlice/end", "shape": [4], "dtype": "int32"}, {"name": "model_99/tf.strided_slice_22/ones_like", "shape": [4], "dtype": "int32"}, {"name": "model_99/tf.strided_slice_20/ones_like/tensor", "shape": [4], "dtype": "int32"}, {"name": "model_99/tf.strided_slice_20/StridedSlice/end", "shape": [4], "dtype": "int32"}, {"name": "model_99/tf.strided_slice_20/ones_like", "shape": [4], "dtype": "int32"}, {"name": "model_99/tf.compat.v1.pad_7/Pad/paddings", "shape": [4, 2], "dtype": "int32"}, {"name": "model_99/tf.nn.convolution_68/convolution/filter", "shape": [3, 3, 3, 16], "dtype": "float32"}, {"name": "model_99/tf.math.add_98/Add/y", "shape": [16], "dtype": "float32"}, {"name": "model_99/tf.compat.v1.pad_8/Pad/paddings", "shape": [4, 2], "dtype": "int32"}, {"name": "model_99/tf.nn.convolution_69/convolution/filter", "shape": [3, 3, 16, 32], "dtype": "float32"}, {"name": "model_99/tf.math.add_99/Add/y", "shape": [32], "dtype": "float32"}, {"name": "model_99/tf.nn.convolution_70/convolution/filter", "shape": [1, 1, 32, 32], "dtype": "float32"}, {"name": "model_99/tf.math.add_100/Add/y", "shape": [32], "dtype": "float32"}, {"name": "model_99/tf.strided_slice_21/ones_like/tensor", "shape": [4], "dtype": "int32"}, {"name": "model_99/tf.strided_slice_21/StridedSlice/end", "shape": [4], "dtype": "int32"}, {"name": "model_99/tf.strided_slice_21/ones_like", "shape": [4], "dtype": "int32"}, {"name": "model_99/tf.nn.convolution_71/convolution/filter", "shape": [3, 3, 16, 16], "dtype": "float32"}, {"name": "model_99/tf.math.add_101/Add/y", "shape": [16], "dtype": "float32"}, {"name": "model_99/tf.nn.convolution_72/convolution/filter", "shape": [3, 3, 16, 16], "dtype": "float32"}, {"name": "model_99/tf.math.add_102/Add/y", "shape": [16], "dtype": "float32"}, {"name": "model_99/tf.concat_30/concat/axis", "shape": [], "dtype": "int32"}, {"name": "model_99/tf.nn.convolution_73/convolution/filter", "shape": [1, 1, 48, 32], "dtype": "float32"}, {"name": "model_99/tf.math.add_105/Add/y", "shape": [32], "dtype": "float32"}, {"name": "model_99/tf.compat.v1.pad_9/Pad/paddings", "shape": [4, 2], "dtype": "int32"}, {"name": "model_99/tf.nn.convolution_74/convolution/filter", "shape": [3, 3, 32, 64], "dtype": "float32"}, {"name": "model_99/tf.math.add_106/Add/y", "shape": [64], "dtype": "float32"}, {"name": "model_99/tf.nn.convolution_75/convolution/filter", "shape": [1, 1, 64, 64], "dtype": "float32"}, {"name": "model_99/tf.math.add_107/Add/y", "shape": [64], "dtype": "float32"}, {"name": "model_99/tf.strided_slice_23/ones_like/tensor", "shape": [4], "dtype": "int32"}, {"name": "model_99/tf.strided_slice_23/StridedSlice/end", "shape": [4], "dtype": "int32"}, {"name": "model_99/tf.strided_slice_23/ones_like", "shape": [4], "dtype": "int32"}, {"name": "model_99/tf.nn.convolution_76/convolution/filter", "shape": [3, 3, 32, 32], "dtype": "float32"}, {"name": "model_99/tf.math.add_108/Add/y", "shape": [32], "dtype": "float32"}, {"name": "model_99/tf.nn.convolution_77/convolution/filter", "shape": [3, 3, 32, 32], "dtype": "float32"}, {"name": "model_99/tf.math.add_109/Add/y", "shape": [32], "dtype": "float32"}, {"name": "model_99/tf.nn.convolution_78/convolution/filter", "shape": [3, 3, 32, 32], "dtype": "float32"}, {"name": "model_99/tf.math.add_112/Add/y", "shape": [32], "dtype": "float32"}, {"name": "model_99/tf.nn.convolution_79/convolution/filter", "shape": [3, 3, 32, 32], "dtype": "float32"}, {"name": "model_99/tf.math.add_113/Add/y", "shape": [32], "dtype": "float32"}, {"name": "model_99/tf.concat_31/concat/axis", "shape": [], "dtype": "int32"}, {"name": "model_99/tf.nn.convolution_80/convolution/filter", "shape": [1, 1, 128, 64], "dtype": "float32"}, {"name": "model_99/tf.math.add_116/Add/y", "shape": [64], "dtype": "float32"}, {"name": "model_99/tf.compat.v1.pad_10/Pad/paddings", "shape": [4, 2], "dtype": "int32"}, {"name": "model_99/tf.nn.convolution_81/convolution/filter", "shape": [3, 3, 64, 128], "dtype": "float32"}, {"name": "model_99/tf.math.add_117/Add/y", "shape": [128], "dtype": "float32"}, {"name": "model_99/tf.nn.convolution_82/convolution/filter", "shape": [1, 1, 128, 128], "dtype": "float32"}, {"name": "model_99/tf.math.add_118/Add/y", "shape": [128], "dtype": "float32"}, {"name": "model_99/tf.strided_slice_25/ones_like/tensor", "shape": [4], "dtype": "int32"}, {"name": "model_99/tf.strided_slice_25/StridedSlice/end", "shape": [4], "dtype": "int32"}, {"name": "model_99/tf.strided_slice_25/ones_like", "shape": [4], "dtype": "int32"}, {"name": "model_99/tf.nn.convolution_83/convolution/filter", "shape": [3, 3, 64, 64], "dtype": "float32"}, {"name": "model_99/tf.math.add_119/Add/y", "shape": [64], "dtype": "float32"}, {"name": "model_99/tf.nn.convolution_84/convolution/filter", "shape": [3, 3, 64, 64], "dtype": "float32"}, {"name": "model_99/tf.math.add_120/Add/y", "shape": [64], "dtype": "float32"}, {"name": "model_99/tf.nn.convolution_85/convolution/filter", "shape": [3, 3, 64, 64], "dtype": "float32"}, {"name": "model_99/tf.math.add_123/Add/y", "shape": [64], "dtype": "float32"}, {"name": "model_99/tf.nn.convolution_86/convolution/filter", "shape": [3, 3, 64, 64], "dtype": "float32"}, {"name": "model_99/tf.math.add_124/Add/y", "shape": [64], "dtype": "float32"}, {"name": "model_99/tf.concat_32/concat/axis", "shape": [], "dtype": "int32"}, {"name": "model_99/tf.nn.convolution_87/convolution/filter", "shape": [1, 1, 256, 128], "dtype": "float32"}, {"name": "model_99/tf.math.add_127/Add/y", "shape": [128], "dtype": "float32"}, {"name": "model_99/tf.compat.v1.pad_11/Pad/paddings", "shape": [4, 2], "dtype": "int32"}, {"name": "model_99/tf.nn.convolution_88/convolution/filter", "shape": [3, 3, 128, 256], "dtype": "float32"}, {"name": "model_99/tf.math.add_128/Add/y", "shape": [256], "dtype": "float32"}, {"name": "model_99/tf.nn.convolution_89/convolution/filter", "shape": [1, 1, 256, 256], "dtype": "float32"}, {"name": "model_99/tf.math.add_129/Add/y", "shape": [256], "dtype": "float32"}, {"name": "model_99/tf.strided_slice_27/ones_like/tensor", "shape": [4], "dtype": "int32"}, {"name": "model_99/tf.strided_slice_27/StridedSlice/end", "shape": [4], "dtype": "int32"}, {"name": "model_99/tf.strided_slice_27/ones_like", "shape": [4], "dtype": "int32"}, {"name": "model_99/tf.nn.convolution_90/convolution/filter", "shape": [3, 3, 128, 128], "dtype": "float32"}, {"name": "model_99/tf.math.add_130/Add/y", "shape": [128], "dtype": "float32"}, {"name": "model_99/tf.nn.convolution_91/convolution/filter", "shape": [3, 3, 128, 128], "dtype": "float32"}, {"name": "model_99/tf.math.add_131/Add/y", "shape": [128], "dtype": "float32"}, {"name": "model_99/tf.concat_33/concat/axis", "shape": [], "dtype": "int32"}, {"name": "model_99/tf.nn.convolution_92/convolution/filter", "shape": [1, 1, 384, 256], "dtype": "float32"}, {"name": "model_99/tf.math.add_134/Add/y", "shape": [256], "dtype": "float32"}, {"name": "model_99/tf.nn.convolution_93/convolution/filter", "shape": [1, 1, 256, 128], "dtype": "float32"}, {"name": "model_99/tf.math.add_135/Add/y", "shape": [128], "dtype": "float32"}, {"name": "model_99/tf.concat_34/concat/axis", "shape": [], "dtype": "int32"}, {"name": "model_99/tf.nn.convolution_94/convolution/filter", "shape": [1, 1, 512, 256], "dtype": "float32"}, {"name": "model_99/tf.math.add_136/Add/y", "shape": [256], "dtype": "float32"}, {"name": "model_99/tf.concat_42/concat/axis", "shape": [], "dtype": "int32"}, {"name": "model_99/tf.nn.convolution_119/convolution/filter", "shape": [1, 1, 384, 256], "dtype": "float32"}, {"name": "model_99/tf.math.add_161/Add/y", "shape": [256], "dtype": "float32"}, {"name": "model_99/tf.strided_slice_35/ones_like/tensor", "shape": [4], "dtype": "int32"}, {"name": "model_99/tf.strided_slice_35/StridedSlice/end", "shape": [4], "dtype": "int32"}, {"name": "model_99/tf.strided_slice_35/ones_like", "shape": [4], "dtype": "int32"}, {"name": "model_99/tf.nn.convolution_122/convolution/filter", "shape": [3, 3, 128, 128], "dtype": "float32"}, {"name": "model_99/tf.math.add_164/Add/y", "shape": [128], "dtype": "float32"}, {"name": "model_99/tf.nn.convolution_123/convolution/filter", "shape": [3, 3, 128, 128], "dtype": "float32"}, {"name": "model_99/tf.math.add_165/Add/y", "shape": [128], "dtype": "float32"}, {"name": "model_99/tf.concat_44/concat/axis", "shape": [], "dtype": "int32"}, {"name": "model_99/tf.nn.convolution_124/convolution/filter", "shape": [1, 1, 384, 256], "dtype": "float32"}, {"name": "model_99/tf.math.add_166/Add/y", "shape": [256], "dtype": "float32"}, {"name": "model_99/tf.nn.convolution_126/convolution/filter", "shape": [3, 3, 256, 100], "dtype": "float32"}, {"name": "model_99/tf.math.add_168/Add/y", "shape": [100], "dtype": "float32"}, {"name": "model_99/tf.nn.convolution_128/convolution/filter", "shape": [3, 3, 100, 100], "dtype": "float32"}, {"name": "model_99/tf.math.add_170/Add/y", "shape": [100], "dtype": "float32"}, {"name": "model_99/tf.nn.convolution_130/convolution/filter", "shape": [1, 1, 100, 601], "dtype": "float32"}, {"name": "model_99/tf.math.add_172/Add/y", "shape": [601], "dtype": "float32"}, {"name": "model_99/tf.concat_45/concat/axis", "shape": [], "dtype": "int32"}, {"name": "model_99/tf.compat.v1.transpose_381/transpose/perm", "shape": [4], "dtype": "int32"}, {"name": "model_99/tf.reshape_63/Reshape/shape", "shape": [3], "dtype": "int32"}, {"name": "model_99/tf.concat_46/concat/axis", "shape": [], "dtype": "int32"}, {"name": "model_99/tf.strided_slice_37/StridedSlice/begin", "shape": [3], "dtype": "int32"}, {"name": "model_99/tf.strided_slice_37/StridedSlice/end", "shape": [3], "dtype": "int32"}, {"name": "model_99/tf.strided_slice_37/ones_like", "shape": [3], "dtype": "int32"}, {"name": "model_99/output0/concat/axis", "shape": [], "dtype": "int32"}]}]}